models/vit_2_6/model.onnx (onnx, 313502 bytes, 40 tensors)

0.cls_token f4 [1, 1, 48]
0	0x3ea59410	0.32339525
1	0x3d612e07	0.054975536
2	0x3e6aeaea	0.22941175
3	0x3d666268	0.05624619
4	0xbdcd2f77	-0.10018819
5	0xbead4076	-0.33838242
6	0xbe865e99	-0.26244047
7	0xbcddc5d5	-0.027071873
8	0x3d092553	0.03348286
9	0x3f0a0cfe	0.53926075
10	0xbee306bf	-0.44341084
11	0xbe817259	-0.25282553
12	0x3d7be85b	0.06150089
13	0x3f230ccb	0.63691396
14	0xbe2d6032	-0.16931227
15	0xbe570239	-0.20996942
16	0x3e821bce	0.25411838
17	0xbf8cb35a	-1.0992234
18	0x3f01189d	0.5042818
19	0xbd40f9e8	-0.04711333
20	0x3e2d130d	0.16901799
21	0x3cf18dab	0.029486498
22	0x3e501f3b	0.20324413
23	0x3e9a724c	0.30165327
24	0x3d826838	0.063675344
25	0x3d9fda0d	0.07805262
26	0xbd2c46cc	-0.042059705
27	0xbccd40de	-0.025055345
28	0x3d90e317	0.07074564
29	0xbca3ebd8	-0.02000992
30	0xbd12c849	-0.035835538
31	0x3d33c30b	0.04388718
32	0x3d69e11b	0.057099443
33	0x3e25c53a	0.16188517
34	0x3e157719	0.14596213
35	0xbf4d9fa4	-0.8032172
36	0x3aa98dc9	0.0012935932
37	0xbdf307ce	-0.11866723
38	0xbe8f6981	-0.2801018
39	0x3f707d0d	0.9394081
40	0x3ee1b181	0.44080737
41	0x3e0261b7	0.12732588
42	0xbe57e752	-0.21084335
43	0x3f1ef97b	0.62099427
44	0xbda6b27e	-0.081395134
45	0xbd9ce249	-0.07660348
46	0x3f780c28	0.9689355
47	0xbc861e26	-0.016371798

0.positions f4 [5, 48]
0	0x3ea5940f	0.32339522
1	0x3d6130fb	0.054978352
2	0x3e6aea66	0.22940978
3	0x3d6665a1	0.056249265
4	0xbdcd2e65	-0.10018615
5	0xbead401a	-0.33837968
6	0xbe865ea3	-0.26244077
7	0xbcddc20d	-0.02707007
8	0x3d0927cc	0.03348522
9	0x3f0a0d25	0.53926307
10	0xbee306da	-0.44341165
11	0xbe817222	-0.2528239
12	0x3d7be411	0.061496798
13	0x3f230cfc	0.6369169
14	0xbe2d5f83	-0.16930966
15	0xbe56ff2c	-0.20995778
16	0x3e821abf	0.2541103
17	0xbf8cb37a	-1.0992272
18	0x3f0118bf	0.50428385
19	0xbd40fd95	-0.047116835
20	0x3e2d1331	0.16901852
21	0x3cf1842e	0.029481973
22	0x3e501ffc	0.20324701
23	0x3e9a71e6	0.30165023
24	0x3d82675d	0.06367371
25	0x3d9fda5e	0.07805322
26	0xbd2c454e	-0.04205828
27	0xbccd4c73	-0.025060868
28	0x3d90e46f	0.0707482
29	0xbca3e6e0	-0.02000755
30	0xbd12c73e	-0.035834543
31	0x3d33bfee	0.04388421
32	0x3d69dfb0	0.05709809
33	0x3e25c471	0.16188218
34	0x3e157781	0.14596368
35	0xbf4d9f1f	-0.80320925
36	0x3aa96bae	0.0012925768
37	0xbdf30845	-0.11866812
38	0xbe8f694e	-0.2801003
39	0x3f707d0e	0.9394082
40	0x3ee1b1d8	0.44080997
41	0x3e0260ad	0.12732191
42	0xbe57e771	-0.21084382
43	0x3f1ef957	0.6209921
44	0xbda6afca	-0.08138998
45	0xbd9ce173	-0.076601885
46	0x3f780c00	0.9689331
47	0xbc861195	-0.016365806
48	0xc08ac61c	-4.3366833
49	0xbed506f6	-0.41606873
50	0x3fad372c	1.3532462
51	0xc037676f	-2.865688
52	0xc0212138	-2.5176525
53	0xc00e513e	-2.2237086
54	0x40374d87	2.864107
55	0x402e5146	2.7237105
56	0x3f9e7b41	1.2381364
57	0x3cf47046	0.029838692
58	0x40fecaa8	7.9622383
59	0xc010f66d	-2.2650406
60	0x3eb77b89	0.35836437
61	0x3fbf0295	1.4922663
62	0x3f390d3d	0.72285825
63	0x3dc8d50b	0.0980626
64	0xbcf350ab	-0.029701551
65	0x408c2ece	4.3807135
66	0xbcb8174d	-0.022472048
67	0x3f6c5ab0	0.9232588
68	0xbf957067	-1.1674927
69	0x3ec6abb4	0.38802874
70	0xc093a3f5	-4.6137643
71	0xc02e2279	-2.720854
72	0xbdc4f60d	-0.09617243
73	0x3e653fc9	0.22387613
74	0x3fddc56e	1.7325876
75	0xbe2b9927	-0.16757642
76	0xc01342c6	-2.3009505
77	0x3fef0db8	1.8676062
78	0xc0124290	-2.2853127
79	0xbdb8cff7	-0.09024041
80	0x3e5fa110	0.21838784
81	0xbfdfaa35	-1.7473818
82	0xbf7e032f	-0.9922361
83	0x407edb1d	3.9821236
84	0x3fb598fa	1.418731
85	0x3f5bd69b	0.85874337
86	0xbf57b36f	-0.8425817
87	0xc02ab64d	-2.6673768
88	0xbedb17dd	-0.42791644
89	0xbf04417f	-0.5166244
90	0x3f3eeec2	0.74583066
91	0xbf311623	-0.691744
92	0x3e8bce87	0.27306005
93	0x3f93a955	1.1536051
94	0xc036732e	-2.85078
95	0xbe2ac40a	-0.16676345
96	0xc08c4472	-4.383355
97	0xbf7733f1	-0.9656363
98	0x40030bcd	2.0475953
99	0xc02fad13	-2.7449386
100	0xbff658be	-1.9245832
101	0xc00e0d8f	-2.2195776
102	0x3fe733b0	1.8062649
103	0x40494559	3.1448576
104	0xbf8d4b85	-1.1038672
105	0xbfc3c6d6	-1.5295055
106	0x40c78a8d	6.235663
107	0x3f9d72ad	1.2300621
108	0x3e1e909a	0.15484849
109	0x40821d25	4.0660577
110	0x3f89631e	1.0733373
111	0x3fd83ad1	1.6892949
112	0xbf084673	-0.53232497
113	0x40bb3985	5.8507714
114	0xbda17fae	-0.07885681
115	0x3f2e45b0	0.68075085
116	0xbf75ad3e	-0.9596747
117	0x3ea9ec26	0.3318798
118	0xc04982e3	-3.1486137
119	0xc087ec7a	-4.247617
120	0x3f62dbdb	0.8861672
121	0x3e961b1f	0.29317567
122	0x3fe25191	1.7681142
123	0xbe69ee5f	-0.22844838
124	0xc004aa1b	-2.0728824
125	0x40479697	3.1185663
126	0xc0124bf0	-2.2858849
127	0x3e4f1496	0.20222697
128	0xbf4ab164	-0.79176927
129	0x3f2fa20a	0.68606627
130	0xbdb46828	-0.08808929
131	0x3f5fccdc	0.87421966
132	0xc055e3bd	-3.342025
133	0x3ea1963e	0.31559938
134	0x3f635ba1	0.8881169
135	0x3f470d10	0.77754307
136	0x3f4d1bfc	0.80120826
137	0xc013ebb0	-2.3112602
138	0xbe3d1427	-0.18464719
139	0xbfd171ab	-1.6362814
140	0xbf9ef19b	-1.2417482
141	0x3ea0007b	0.31250367
142	0xc09dab07	-4.9271274
143	0x3e44558a	0.19173256
144	0x3f77a38b	0.9673392
145	0xbeffb007	-0.49938986
146	0xc04006b9	-3.0004103
147	0x400eb442	2.229752
148	0x3fdf3376	1.743758
149	0x4089c953	4.3058257
150	0xbe379b86	-0.17930421
151	0xc01393b2	-2.3058896
152	0xc01a7256	-2.4132285
153	0x3f1a48ec	0.6026752
154	0xc07b8b5e	-3.9303813
155	0x3efba85c	0.49151886
156	0xbe506a16	-0.20352969
157	0xbe6a5360	-0.22883368
158	0xbffc1638	-1.9694281
159	0xbda71c2b	-0.081596695
160	0xbe877eba	-0.26463872
161	0xbf175325	-0.59111243
162	0xbf174f16	-0.5910505
163	0xbf8347f9	-1.0256339
164	0x3f9e8e64	1.2387204
165	0x3deea898	0.116532505
166	0x407390db	3.8057163
167	0x4019eb14	2.404973
168	0x3f250133	0.64454955
169	0xbf73e7f5	-0.95275813
170	0xbfea4110	-1.8301105
171	0xbd9446e4	-0.07240084
172	0xbd737724	-0.059439793
173	0x3e1ac199	0.15112914
174	0x405b6661	3.4281237
175	0xbf2364e9	-0.6382585
176	0xbf9a0c7e	-1.2035062
177	0x408fac5d	4.4897904
178	0x3f2c1630	0.67221355
179	0xc004ea34	-2.0767946
180	0xbe80aa7d	-0.25130072
181	0xc05ef9f2	-3.4840055
182	0x3db48487	0.0881434
183	0x3f471cd2	0.7777835
184	0x3f889997	1.0671872
185	0x3f7560b8	0.95850706
186	0xc018334a	-2.3781304
187	0x3d320edd	0.043471206
188	0xc0107b7b	-2.2575366
189	0xbf556cf7	-0.8336939
190	0x404252de	3.0363078
191	0x3e504a17	0.20340763
192	0x3fa38fc9	1.2778255
193	0x3f99a09a	1.2002137
194	0xbfb67f8e	-1.4257677
195	0x4015c58e	2.3401828
196	0x3fd4a9a3	1.6614269
197	0x4045085c	3.0786352
198	0xc0027c6a	-2.0388436
199	0xc02207cf	-2.5317266
200	0x4022a0b6	2.541059
201	0x3ec6cb47	0.38826963
202	0xbff93b01	-1.9471132
203	0xbf39dba8	-0.72600794
204	0xbf384452	-0.7197925
205	0xc09c41ac	-4.8830166
206	0xbf310f4b	-0.6916396
207	0xbf72fad7	-0.94914
208	0x3f8073ed	1.0035378
209	0xc08a2914	-4.3175144
210	0x3f14f25b	0.58182305
211	0x3ce08b4b	0.02741017
212	0xbef519a4	-0.47871125
213	0x3ee33915	0.44379488
214	0x4002b5fd	2.0423577
215	0x40415425	3.0207608
216	0xbfd116d5	-1.6335093
217	0x3c858a71	0.016301366
218	0xbfcdcfe3	-1.6079067
219	0xbc65734b	-0.014004539
220	0x4042307b	3.034209
221	0xc04b8915	-3.1802418
222	0x40294764	2.6449823
223	0xbe672392	-0.22572163
224	0x3fe89ba7	1.8172501
225	0xc0987686	-4.764468
226	0xbe03c477	-0.12867914
227	0xbd8dad37	-0.06917804
228	0x401e5244	2.473771
229	0x40304f4f	2.7548406
230	0xbcb6fc5b	-0.02233713
231	0x3f37cc33	0.7179596
232	0xc023bcca	-2.5583978
233	0x3f1e273d	0.6177862
234	0x4040bf36	3.0116706
235	0x3fe2d846	1.7722251
236	0x40a2521c	5.072523
237	0x3f08d271	0.5344611
238	0xc00a5192	-2.1612287
239	0xbe6621be	-0.22473809

0.projection.weight f4 [48, 3, 16, 16]
0	0xba3830ab	-0.0007026295
1	0xb9e62b71	-0.00043901385
2	0xba793dea	-0.0009507822
3	0xbad626f9	-0.0016338519
4	0xbb03f0bc	-0.0020132503
5	0xbb6b3d2e	-0.003589462
6	0xbb301647	-0.0026868747
7	0xbb321c2b	-0.0027177434
8	0xbb8c5b16	-0.004283319
9	0xbc08e25d	-0.00835475
10	0xbbf1bd38	-0.007377293
11	0xbad65447	-0.0016352021
12	0xbad908b0	-0.0016558375
13	0xba9ca35f	-0.0011950544
14	0xba2358a6	-0.0006231166
15	0xbb5ba78b	-0.0033516611
16	0xbad34276	-0.0016117829
17	0xbb04599c	-0.0020195013
18	0xbad84e12	-0.0016502759
19	0xbaf6d899	-0.0018832862
20	0xba9049f5	-0.0011008369
21	0xbb341045	-0.0027475518
22	0xbb908b52	-0.0044111395
23	0xbb82e6e3	-0.003994809
24	0xbbe7aa68	-0.0070698746
25	0xbc576ffd	-0.013149259
26	0xbc4871f1	-0.012234197
27	0xbb068d03	-0.0020530827
28	0xbb40b0f8	-0.0029402357
29	0xbb15b44d	-0.0022843063
30	0xbb906780	-0.0044068694
31	0xbc044f13	-0.008075493
32	0xbabe0fc2	-0.0014500546
33	0xbb0be895	-0.0021348346
34	0xbb4da213	-0.0031377121
35	0xbac8cfe8	-0.001532075
36	0xba0c3ac6	-0.0005349334
37	0xba2a85f9	-0.0006504949
38	0xba8c36a8	-0.0010697441
39	0xbae13378	-0.0017181477
40	0xbb5c7e98	-0.0033644792
41	0xbcb96f7f	-0.022636173
42	0xbc6422e0	-0.0139243305
43	0xbb43e036	-0.0029888279
44	0xbba07ff6	-0.0048980666
45	0xbb4d7cee	-0.0031354981
46	0xbb98773c	-0.0046528857
47	0xbbd320bd	-0.0064431117
48	0x38285ccf	4.0140756e-05
49	0xb8720367	-5.7700465e-05
50	0xba8581e8	-0.001018581
51	0xba8578b0	-0.0010183062
52	0xb8102e2b	-3.4375273e-05
53	0xb888db4e	-6.525834e-05
54	0xba34f366	-0.0006902724
55	0xba8bef2d	-0.0010676138
56	0xbb7f372a	-0.0038942792
57	0xbd82586b	-0.06364521
58	0xbdcbca81	-0.09950734
59	0xbd926ab4	-0.07149258
60	0xbc71d5ce	-0.014760448
61	0xbb368d40	-0.0027855188
62	0xbb6e1ee2	-0.0036334326
63	0xbb3b6417	-0.0028593594
64	0x39046045	0.00012624364
65	0x3a0470f4	0.0005052232
66	0x39d4aee3	0.00040566092
67	0xbb5479d8	-0.0032421257
68	0xbb0e26c4	-0.0021690587
69	0xba1eb037	-0.000605348
70	0xb92d2bd9	-0.000165149
71	0xbb6458b0	-0.00348429
72	0xbb2f034d	-0.0026704848
73	0xbb2e8288	-0.0026628096
74	0xbc802b7c	-0.015645735
75	0xbbc2a0fa	-0.0059396
76	0xbbb48bfb	-0.005509851
77	0xbb05e34b	-0.0020429667
78	0xbadf068a	-0.0017015499
79	0xba377b2e	-0.0006999251
80	0xb9d57737	-0.00040715348
81	0x39ec872c	0.0004511414
82	0x39fcd3e2	0.0004822305
83	0xba61ef9c	-0.00086187734
84	0xb90e95f5	-0.00013598039
85	0xb9a86be3	-0.0003212384
86	0xbad476ca	-0.0016209718
87	0xbbb2d28e	-0.005457229
88	0xbc944fad	-0.018104399
89	0xbcae212f	-0.021256058
90	0xbd0d8240	-0.034548044
91	0xbc507cf0	-0.0127251
92	0xbb321788	-0.002717467
93	0xba8e43ee	-0.0010853985
94	0xb9f78a0c	-0.00047214364
95	0xb8ebd40d	-0.00011245171
96	0xbb115cd1	-0.0022180567
97	0x3984d5bf	0.00025336255
98	0x3a11a742	0.00055562344
99	0xb91fc44f	-0.00015236552
100	0xba0b0cd0	-0.00053043384
101	0xbab67698	-0.0013920842
102	0xbb57c2e5	-0.0032922563
103	0xbb5555ac	-0.0032552285
104	0xbb3f0ccc	-0.0029151915
105	0xbb80afc5	-0.0039272034
106	0xbbc79b01	-0.006091476
107	0xbb837b78	-0.0040125214
108	0xba6a8380	-0.00089459866
109	0xbad81813	-0.0016486667
110	0xba7b4c2a	-0.00095862395
111	0xb91602f6	-0.00014306218
112	0xbb996c35	-0.0046820887
113	0xbb4038fe	-0.0029330845
114	0xbaf7271b	-0.0018856259
115	0xba5afdd7	-0.0008353865
116	0xbb5b0a60	-0.0033422932
117	0xbb430cd2	-0.002976228
118	0xbb2a1982	-0.0025955145
119	0xbb783040	-0.0037870556
120	0xbb0a7462	-0.0021126498
121	0xba8b7b90	-0.0010641683
122	0xbb362994	-0.0027795779
123	0xba15a79a	-0.00057088735
124	0xb9c9a0a3	-0.0003845739
125	0xb80b91e2	-3.3276046e-05
126	0xba5dd8a0	-0.00084627606
127	0x3913eb4b	0.00014106666
128	0xbb236830	-0.0024933927
129	0xba425c19	-0.00074142363
130	0xbb4bede4	-0.0031117136
131	0xbb9ece5d	-0.0048463778
132	0xbb95fdf5	-0.004577393
133	0xbb4c669f	-0.0031189097
134	0xbb1a5461	-0.002354883
135	0xbb94318d	-0.0045225085
136	0xba85b393	-0.0010200612
137	0xb9bc8eac	-0.00035964453
138	0xb995489e	-0.000284736
139	0xba2e6e3d	-0.0006654
140	0xbb04da9d	-0.0020271905
141	0xbadd3aa4	-0.0016878438
142	0xbad598d3	-0.0016296156
143	0xba38e2a5	-0.00070528156
144	0xbac42d30	-0.001496708
145	0x38ec7d08	0.00011276646
146	0xbb937b25	-0.004500764
147	0xbb52dea8	-0.003217617
148	0xbbaf2d61	-0.0053459858
149	0xbb89d502	-0.0042063007
150	0xbaaf934d	-0.001339534
151	0xbb035135	-0.0020037417
152	0xbb297ebf	-0.00258629
153	0xbacb2157	-0.0015497607
154	0xba693938	-0.0008896771
155	0xba1e7e3a	-0.0006046031
156	0xbb23d7c2	-0.0025000428
157	0xbb0159a2	-0.0019737263
158	0xbb006349	-0.0019590429
159	0xbb273a8e	-0.002551708
160	0xb83769c6	-4.372911e-05
161	0x3a48ee8d	0.00076649414
162	0xb78f131c	-1.7055827e-05
163	0xb856529b	-5.109851e-05
164	0xbac377e3	-0.0014913048
165	0xbaa8e451	-0.0012885426
166	0xba818579	-0.0009881697
167	0xba894dff	-0.0010475515
168	0xbb11c656	-0.0022243462
169	0xbb003637	-0.0019563565
170	0xba31ca90	-0.00067821983
171	0xba1baa4a	-0.0005938156
172	0xb95d3b25	-0.00021098235
173	0xba133cf6	-0.0005616689
174	0xb98a301b	-0.00026357253
175	0x3806a6cb	3.2103428e-05
176	0xba518157	-0.00079919904
177	0x390c5efe	0.00013386828
178	0x39484ca2	0.00019102034
179	0xb9461e6c	-0.00018894084
180	0xb84cdc07	-4.8842307e-05
181	0xb99d2dba	-0.00029979442
182	0xba7533b9	-0.00093537156
183	0xba6ab1ed	-0.00089529046
184	0xba4b5e1d	-0.00077578594
185	0xbad5ae6d	-0.0016302593
186	0xbaae4312	-0.0013295135
187	0xba185508	-0.00058110105
188	0xb9c25dfb	-0.00037072584
189	0xba923cdd	-0.0011157055
190	0xba836f95	-0.0010027761
191	0xba5ebdec	-0.00084969285
192	0xbabb21ef	-0.0014277081
193	0xba3f2127	-0.0007291012
194	0x39492681	0.00019183198
195	0x3a4054a0	0.0007336829
196	0xb8a60f17	-7.9183075e-05
197	0x3a2d1636	0.0006602736
198	0xba2760d6	-0.0006384974
199	0xba577471	-0.000821895
200	0xba56e213	-0.000819714
201	0xba8f0cdd	-0.0010913868
202	0xba99fe1e	-0.0011748706
203	0xba802070	-0.0009775292
204	0xba8e221e	-0.0010843908
205	0xbb483558	-0.0030549373
206	0xbb2fa2de	-0.0026799957
207	0xbb57e406	-0.003294231
208	0x3a6cb177	0.000902913
209	0x39c6abf2	0.00037893612
210	0x3b0d5f9f	0.0021571887
211	0x3b0bfd23	0.0021360598
212	0x3aaa85e8	0.0013009878
213	0x3a959f09	0.0011415194
214	0x378fb4b5	1.7131077e-05
215	0xb9ee0031	-0.0004539504
216	0xba199e58	-0.0005860082
217	0xba6a3fe7	-0.0008935914
218	0xba7b9e83	-0.000959851
219	0xba9e77ed	-0.0012090184
220	0xbadd84a5	-0.0016900493
221	0xbabd19a3	-0.0014427196
222	0xbaa62178	-0.0012674769
223	0xbb159f16	-0.0022830418
224	0x3b3bb048	0.0028639007
225	0x3b30375d	0.0026888468
226	0x3b7f469e	0.0038952003
227	0x3b87d2af	0.0041449885
228	0x3b4f2d77	0.0031612793
229	0x3b099eba	0.002099915
230	0x3b26936c	0.002541746
231	0x3a633e2c	0.0008668627
232	0x3a4cea83	0.00078169274
233	0x3a27a88e	0.0006395661
234	0x382e9afa	4.1629166e-05
235	0x398d3c23	0.0002693842
236	0xb9f1e05c	-0.00046134263
237	0x39ad4928	0.00033051637
238	0x3aa8af8c	0.00128697
239	0x3923d844	0.00015625457
240	0x3bb808c0	0.0056162775
241	0x3bd23f87	0.0064162645
242	0x3d00f58b	0.031484168
243	0x3dba93a0	0.091101885
244	0x3e3608eb	0.1777684
245	0x3e538193	0.20654897
246	0x3e6220fa	0.22082892
247	0x3e474cf7	0.19462954
248	0x3e2beb75	0.16789038
249	0x3e1b4019	0.1516117
250	0x3e06bb3f	0.13157366
251	0x3de0b1b5	0.10971395
252	0x3d766295	0.06015261
253	0x3bb985f7	0.005661722
254	0x3b539ebe	0.0032290663
255	0x3b01aeb1	0.0019787962

0.projection.bias f4 [48]
0	0xbf887184	-1.0659642
1	0xbe1e2a22	-0.1544576
2	0xbebabf1b	-0.36473927
3	0x3e9954e9	0.29947594
4	0xbd74513c	-0.059647784
5	0x3f4646b6	0.77451646
6	0x3ee407a4	0.4453708
7	0xbd82f94b	-0.06395205
8	0x3db0a520	0.08625245
9	0xbe01d60a	-0.12679306
10	0x3f364514	0.71199155
11	0xbea41516	-0.32047337
12	0xbdbe94e6	-0.09305744
13	0x3dbda83e	0.09260605
14	0xbde70f52	-0.11282219
15	0x3e1bc80b	0.15213029
16	0x3cdeefb1	0.027213903
17	0x3e4fd4ab	0.2029597
18	0xbdafdc45	-0.08586935
19	0x3e3898d2	0.18027046
20	0xbef4f93b	-0.47846398
21	0x3ea35cdd	0.31906787
22	0xbe8752a8	-0.2643025
23	0xbe39c7e7	-0.18142663
24	0xbd66a2a5	-0.056307454
25	0xbe229df7	-0.15880571
26	0x3cef4ae2	0.029210512
27	0xbe1f0e79	-0.15532865
28	0x3e3a140e	0.18171713
29	0xbe072c44	-0.1320048
30	0x3e6b3bde	0.22972056
31	0xbe6aeccf	-0.22941898
32	0xbd840d81	-0.06447888
33	0x3ecf68cd	0.40509644
34	0xbd9fdcf0	-0.07805812
35	0x3ead2f15	0.33824983
36	0x3e8d1007	0.2755129
37	0xbdb0ee54	-0.086392075
38	0x3d730867	0.059334185
39	0x3b3d53fd	0.0028889172
40	0xbeae467f	-0.3403816
41	0xbd861068	-0.06546098
42	0x3e063be2	0.13108781
43	0x3d8d9a85	0.06914238
44	0x3da6302b	0.08114656
45	0x3eb7d7f5	0.3590695
46	0xbea0308e	-0.31287044
47	0xbc00cf25	-0.007861887

1.0.0.fn.0.weight f4 [48]
0	0xb799dc04	-1.8341474e-05
1	0xb5fef8cf	-1.8996888e-06
2	0x3592d174	1.0938807e-06
3	0x3773b76c	1.4526635e-05
4	0x372a0a60	1.0135205e-05
5	0x382a8f14	4.066441e-05
6	0x3802e007	3.1203057e-05
7	0xb79ab3c5	-1.8441942e-05
8	0x351f9246	5.944497e-07
9	0xb9d47faa	-0.00040530908
10	0xb78f37d6	-1.7072929e-05
11	0xb4afb84b	-3.273038e-07
12	0xb7959294	-1.783044e-05
13	0xb756b34e	-1.2797142e-05
14	0x36e77c4a	6.8988056e-06
15	0xb98c0811	-0.0002670889
16	0x38a0abfc	7.661429e-05
17	0x3a9b17ed	0.0011832692
18	0x397075ca	0.00022932063
19	0xb89e57ac	-7.550357e-05
20	0x36f5850a	7.3170568e-06
21	0xb7529e16	-1.2553783e-05
22	0xb3ac4c14	-8.023213e-08
23	0xb9005b08	-0.00012240943
24	0xb7af3baa	-2.0889409e-05
25	0x36859d52	3.9820234e-06
26	0xb7177346	-9.027141e-06
27	0x369c3306	4.655102e-06
28	0x39afe970	0.00033552526
29	0x35a5e3dc	1.2359774e-06
30	0x37346a1c	1.0753542e-05
31	0xb63b675e	-2.792534e-06
32	0xb78aa581	-1.652795e-05
33	0x370d392b	8.417565e-06
34	0xb1a80361	-4.8898277e-09
35	0x3a0789ef	0.0005170395
36	0xb5baa976	-1.39074e-06
37	0xb3ef8760	-1.1153929e-07
38	0x33d42f7d	9.8806574e-08
39	0xb388a85a	-6.3636165e-08
40	0x3803a559	3.1386826e-05
41	0x36f32ee1	7.2474218e-06
42	0x3ab9301b	0.0014128716
43	0xb7befc3e	-2.2767224e-05
44	0xb7f1931c	-2.8797942e-05
45	0x35301310	6.559285e-07
46	0xba1ec3a0	-0.0006056372
47	0xb799f112	-1.8351278e-05

1.0.0.fn.0.bias f4 [48]
0	0x3dff5ea2	0.12469222
1	0xb69a8a19	-4.6056343e-06
2	0x380a802e	3.302114e-05
3	0xb918595e	-0.00014529141
4	0x372b084a	1.0194324e-05
5	0x39087aaf	0.00013015674
6	0xb783d48e	-1.5715395e-05
7	0xb63a3113	-2.7744725e-06
8	0xb80e12fa	-3.387311e-05
9	0xbec14cfb	-0.37754044
10	0x389ae243	7.385437e-05
11	0xb7055e50	-7.949377e-06
12	0x38f9adfa	0.00011905651
13	0x37665470	1.3728728e-05
14	0xb8579011	-5.1394167e-05
15	0xbe78236e	-0.24232265
16	0x39ab08f6	0.00032622338
17	0xbe714c0a	-0.23564163
18	0x3ec17eb6	0.37791985
19	0x394f1152	0.0001974751
20	0x39d27f8b	0.00040149348
21	0xb8c28790	-9.275891e-05
22	0x356223c5	8.424361e-07
23	0xbe8d7c2c	-0.27633798
24	0x3e95e06d	0.29272786
25	0x3933a8f0	0.00017133704
26	0x38a219fb	7.729601e-05
27	0xb85c819c	-5.2572796e-05
28	0x3e59d1d5	0.21271451
29	0xb73f8dc2	-1.1417493e-05
30	0x3e032d1b	0.12810175
31	0xb8665370	-5.491398e-05
32	0xb906c9be	-0.0001285439
33	0xb83ff22b	-4.5763485e-05
34	0x371834b8	9.072181e-06
35	0xbea8015d	-0.3281354
36	0x3e3469f9	0.1761855
37	0x3406d9b6	1.2558925e-07
38	0xb3a0d8ec	-7.4900385e-08
39	0xb3b1b83c	-8.275717e-08
40	0x3987b8b7	0.0002588683
41	0x3930e23a	0.00016868944
42	0xbebbce6b	-0.36680922
43	0xb8930899	-7.011108e-05
44	0xb9763462	-0.00023479902
45	0xb8f71a6d	-0.000117828
46	0xbe5caf31	-0.21551205
47	0xb9be0196	-0.00036240806

1.0.0.fn.1.query.bias f4 [48]
0	0xbaedc1f4	-0.0018139468
1	0x3bdb4c3b	0.006692437
2	0x383171ea	4.230618e-05
3	0xba6dcf57	-0.00090717286
4	0x387304a2	5.794003e-05
5	0x39d3d5b9	0.00040404292
6	0xb9808081	-0.00024509805
7	0xb844a84b	-4.6886777e-05
8	0xb8b9111f	-8.8246765e-05
9	0xb76f9399	-1.4279875e-05
10	0x3a5be2db	0.0008387991
11	0x39a9146c	0.00032249407
12	0x38e1d1b9	0.000107679
13	0xb98699e8	-0.0002567314
14	0xb882e538	-6.2415784e-05
15	0x38b9816a	8.845593e-05
16	0x388b5cf3	6.64535e-05
17	0xba21b60a	-0.00061687885
18	0xb9245d69	-0.00015675057
19	0x3748174d	1.1926354e-05
20	0xba0df8e9	-0.00054158136
21	0xb95848cd	-0.00020626486
22	0xb9009a1f	-0.00012264446
23	0xba216d98	-0.00061579933
24	0xb9341f5f	-0.00017177824
25	0xb99ae6ef	-0.00029545228
26	0x371e53e4	9.437066e-06
27	0x3930016d	0.00016785199
28	0x3b0a689e	0.0021119486
29	0x3b6e0274	0.003631738
30	0x3bcb17b3	0.0061978935
31	0x3966ca4a	0.00022009868
32	0xbc078bc0	-0.008273065
33	0xb988e026	-0.00026106945
34	0xba866172	-0.001025243
35	0xba2fad51	-0.00067015464
36	0xb9d85304	-0.00041260582
37	0x3aa9c943	0.0012953657
38	0xb8a3ec97	-7.816514e-05
39	0x3987dee2	0.00025915267
40	0x3c8f9f21	0.017531933
41	0xba8860e6	-0.0010404855
42	0xb9f8a668	-0.00047426228
43	0x3c4428f1	0.011972652
44	0xb9987b0f	-0.00029083385
45	0x3bdbd92f	0.00670924
46	0x39e34813	0.00043350513
47	0x3a18ef40	0.0005833991

1.0.0.fn.1.key.bias f4 [48]
0	0x3a443f32	0.00074862235
1	0x39913c26	0.0002770137
2	0xbbf80d54	-0.007569948
3	0xbc2e175b	-0.010625686
4	0xb9ba8952	-0.00035578996
5	0x3ac8c260	0.0015316717
6	0x3c904568	0.01761122
7	0x3ad350bb	0.0016122082
8	0x3c44cee4	0.012012217
9	0x3caafa15	0.020871202
10	0xbc921d96	-0.017836373
11	0x39002841	0.00012222027
12	0x3a29ebef	0.0006481995
13	0x3b6d6115	0.0036221195
14	0xba84ec31	-0.0010141191
15	0xbc49ca79	-0.01231634
16	0xbc20330e	-0.009777797
17	0x3ae5ef9e	0.0017542725
18	0xb87d1bf1	-6.0345923e-05
19	0x3c35a5a0	0.011086851
20	0x3b1eff36	0.0024261004
21	0x39da47a5	0.0004163358
22	0xbb98b14b	-0.004659807
23	0xbc131565	-0.008977269
24	0x3d055fe1	0.03256214
25	0x3c8217e4	0.015880533
26	0x3cdafd9f	0.026732264
27	0xbc03232e	-0.008003993
28	0x39bc344c	0.00035897119
29	0x3a402219	0.00073292997
30	0xb99f393b	-0.00030369483
31	0x393f525b	0.00018245859
32	0x3a479dbf	0.00076147536
33	0xbc7d6dcb	-0.015468071
34	0x3bcdf85e	0.006285711
35	0x3ab4720d	0.00137669
36	0xba68837d	-0.0008869691
37	0xbbd49b15	-0.006488214
38	0xbcadd243	-0.021218425
39	0x3cd5d763	0.026103681
40	0x38959801	7.1331866e-05
41	0xbae807e3	-0.0017702546
42	0xb833bb11	-4.2851145e-05
43	0xbab4e4cc	-0.0013801097
44	0xba23802b	-0.0006237055
45	0x3aea793e	0.0017888916
46	0xb806a774	-3.2104042e-05
47	0xbcb62c50	-0.022237927

1.0.0.fn.1.value.bias f4 [48]
0	0x3f47575c	0.77867675
1	0x3f02825c	0.5098016
2	0xbf25c72e	-0.6475705
3	0x3f17fb5e	0.5936793
4	0xbf07dd99	-0.53072506
5	0x3b1d6297	0.0024015063
6	0x3b3e0a03	0.0028997667
7	0xbef68f5d	-0.48156253
8	0xbf43dcf2	-0.7650901
9	0x3f307853	0.689336
10	0x3aeab318	0.0017906157
11	0x3a4ef651	0.00078949804
12	0xbb06fb9c	-0.0020596748
13	0x3f3edafa	0.7455288
14	0x3f0d9365	0.5530303
15	0x3ed4d29c	0.41566932
16	0x3f4d9848	0.8031049
17	0xbefde860	-0.4959135
18	0x3f4d94d2	0.80305207
19	0xbb551746	-0.0032515093
20	0xb8dfe351	-0.000106758096
21	0x3f1ef771	0.62096316
22	0x3f25521a	0.645784
23	0x3f2692e1	0.6506787
24	0x3f41b6b7	0.75669426
25	0xbf04188c	-0.51599956
26	0x3f01ad3f	0.5065498
27	0xbeecf931	-0.46283868
28	0x39fd6724	0.00048332766
29	0xbf505fce	-0.81396186
30	0x3f301185	0.6877673
31	0x3f019f4c	0.5063369
32	0x3f3ffb97	0.7499327
33	0x3ef6444b	0.48098978
34	0xbb097090	-0.0020971633
35	0x3f058257	0.5215201
36	0x3ca420cd	0.020035172
37	0x3f2b541c	0.66925216
38	0x3ef208de	0.4727239
39	0x3f653f9d	0.8955019
40	0xbe97e081	-0.2966347
41	0xbe9b723d	-0.30360594
42	0xbb5a0960	-0.0033269748
43	0x3ed820a2	0.42212397
44	0x3ed5c2e0	0.4175024
45	0x3f3b35f6	0.7312921
46	0xbf21901d	-0.63110524
47	0x3f3aecbc	0.7301748

1.0.0.fn.1.out.bias f4 [48]
0	0xbf9083a0	-1.1290169
1	0xbe25e231	-0.16199566
2	0xbe32d2de	-0.17463252
3	0xbd8f2c77	-0.06990903
4	0x3ea40bd0	0.32040262
5	0x3fa08270	1.2539806
6	0x3df38af5	0.11891738
7	0x3e321410	0.17390466
8	0x3ddcea65	0.10786895
9	0x3dd121d9	0.10211534
10	0x3d84eff1	0.06491078
11	0x3ec4d1f1	0.38441423
12	0x3bbd0d96	0.005769442
13	0xbdc33d37	-0.0953316
14	0xbe4097ab	-0.18807857
15	0x3ebcd0a2	0.36877924
16	0xbb20dfab	-0.002454738
17	0x3d504f70	0.050857008
18	0xbd4fe90b	-0.050759356
19	0xbd050277	-0.032473054
20	0xbddb0506	-0.106943175
21	0x3db0c242	0.08630802
22	0x3c7c38f9	0.015394443
23	0x3d04cc84	0.032421604
24	0x3d6a3e8d	0.05718856
25	0xbddb7ada	-0.107167915
26	0xbe008852	-0.12552002
27	0x3e041374	0.12898046
28	0xbda4757f	-0.08030223
29	0xbe068bf4	-0.13139325
30	0x3e123eae	0.14281723
31	0x3c95f420	0.018304884
32	0xbb97e277	-0.004635151
33	0x3c5b7ffe	0.013397215
34	0xbc08e2f8	-0.008354895
35	0x3ec38e21	0.38194373
36	0x3c958465	0.018251607
37	0x3e164357	0.14674126
38	0xbdceee50	-0.10104048
39	0xbed686c3	-0.4189969
40	0xbe70ed4c	-0.23528022
41	0x3da57bb5	0.08080236
42	0x3d6cd547	0.057820585
43	0xbe9ed015	-0.3101813
44	0x3db2e9e8	0.0873602
45	0x3e15c303	0.14625172
46	0xbe2cddc4	-0.16881472
47	0x3a9f625c	0.0012160051

1.0.1.fn.0.weight f4 [48]
0	0x3f40ae6f	0.75266165
1	0x400172bf	2.0226285
2	0x3fbbc571	1.4669629
3	0x3ff73f30	1.9316158
4	0x3fe02d16	1.7513759
5	0x3f71438c	0.94243693
6	0x3f8e22c0	1.1104355
7	0x3fbdf544	1.4840474
8	0x3fcb4a84	1.5882115
9	0x3f9d9308	1.2310495
10	0x401d86d5	2.4613545
11	0x3f85975a	1.0436814
12	0x3f80380d	1.0017105
13	0x3fae98d9	1.3640395
14	0x3fe60308	1.7969675
15	0x3f8fe851	1.1242772
16	0xb764d09e	-1.36384315e-05
17	0x3fb6ee5c	1.4291492
18	0x3f994221	1.1973306
19	0x3f09ce91	0.5383082
20	0x3fceab8d	1.6146103
21	0x3fd94092	1.697283
22	0x3fc88fe8	1.5668917
23	0x3fc0532a	1.502538
24	0x400a970f	2.16547
25	0x3fe5767b	1.7926782
26	0x3fb85b57	1.4402875
27	0x3f2ebd78	0.68257856
28	0x3fd4c11f	1.6621436
29	0x3fb92e51	1.446726
30	0x3fed8f45	1.8559347
31	0x3feec8c8	1.8655024
32	0x40065c40	2.0993805
33	0x3fd65c76	1.6746967
34	0x3fb5014d	1.4141022
35	0x3fa4eb47	1.2884301
36	0x4000c9d0	2.0123177
37	0x3fb16df7	1.3861684
38	0x3ff2a1d3	1.8955635
39	0x3fa97cdf	1.3241233
40	0x3fa90b0f	1.32065
41	0x3fc21054	1.5161233
42	0x3fac5a23	1.3465008
43	0x3fb3f2f0	1.4058514
44	0x3f90ea07	1.132142
45	0x3fa99ca7	1.3250932
46	0x3fd13f16	1.6347377
47	0x3ff0e7c2	1.8820727

1.0.1.fn.0.bias f4 [48]
0	0xbeaee6c9	-0.3416045
1	0xbd5ac4f1	-0.053410474
2	0xbdc66408	-0.09687048
3	0x3c0e937a	0.008702153
4	0xbe649056	-0.22320685
5	0x3e5c6a59	0.21524943
6	0x3e04444f	0.12916683
7	0xbe9e6599	-0.30936888
8	0x3e20d8d4	0.15707713
9	0x3e6e46c3	0.23269181
10	0x3df637e9	0.12022383
11	0x3e1853d9	0.14875735
12	0x3e86eba6	0.2635166
13	0x3edcd38e	0.43130153
14	0x3db89230	0.09012258
15	0x3def072f	0.11671292
16	0xbec96886	-0.39337558
17	0x3e6b82d7	0.2299913
18	0xbe8bb004	-0.27282727
19	0x3e07c58d	0.13258953
20	0xbe8bb135	-0.27283636
21	0x3e49321b	0.1964802
22	0xbe9222f5	-0.28542295
23	0x3e47e18d	0.19519635
24	0xbe140a71	-0.14457108
25	0xbca209b4	-0.019780017
26	0xbe92f6f4	-0.28704035
27	0x3d1cab27	0.03824916
28	0xbe88b47c	-0.267002
29	0xbcf1084e	-0.029422905
30	0x3e001b61	0.12510444
31	0xbe28f47e	-0.16499516
32	0xbe3306b6	-0.17483029
33	0xbe83ab7a	-0.25716764
34	0x3d8911ea	0.0669287
35	0xbd9f29ee	-0.07771669
36	0xbd8b1f0e	-0.067930326
37	0x3ea227d4	0.3167101
38	0xbe6efcc7	-0.23338614
39	0xbe1ee78c	-0.15518016
40	0xbee092c7	-0.43861982
41	0x3e5654b0	0.20930743
42	0x3e14b4b5	0.1452206
43	0xbe3a277e	-0.18179128
44	0x3f35eba1	0.71062666
45	0x3d83f2d0	0.06442797
46	0xbeaf4d87	-0.34238836
47	0x3e79ba6b	0.24387519

1.0.1.fn.1.0.bias f4 [96]
0	0xbed200e2	-0.410163
1	0xbf146e8e	-0.57981193
2	0xbe935e5d	-0.2878293
3	0xbe4a2830	-0.19741893
4	0xbe7c604c	-0.2464611
5	0xbeb90f5f	-0.3614454
6	0xbf033d4d	-0.5126541
7	0xbdc4e49c	-0.09613916
8	0xbeb6d944	-0.35712636
9	0xbf0056e0	-0.5013256
10	0xbed9037d	-0.42385474
11	0xbd908d60	-0.07058215
12	0xbd8a3824	-0.06748989
13	0xbf14260a	-0.57870543
14	0xbdd944db	-0.10608836
15	0xbe4f8727	-0.202664
16	0x3c79cd02	0.015246632
17	0xbebab844	-0.3646871
18	0xbec9a0f1	-0.393806
19	0xbef7b7f4	-0.48382533
20	0xbf1d170c	-0.6136329
21	0xbb86a91a	-0.004109514
22	0xbd368c00	-0.04456711
23	0xbf6ea4dc	-0.93220305
24	0xbf1b7f84	-0.6074145
25	0xbf3a6bcb	-0.7282073
26	0xbea79446	-0.3273031
27	0xbf3a4e35	-0.72775584
28	0xbca730f1	-0.02040908
29	0xbdd85d45	-0.10564665
30	0x3dc09fec	0.09405503
31	0xbe907357	-0.28212997
32	0xbeb99626	-0.36247367
33	0xbb6cf68b	-0.0036157693
34	0xbddb3716	-0.10703866
35	0xbecd1d55	-0.4006144
36	0xbe03139e	-0.12800452
37	0xbf1eef88	-0.62084246
38	0xbeb5cb81	-0.35506824
39	0xbebca3c3	-0.3684369
40	0xbf13efd3	-0.5778782
41	0xbeee0ad1	-0.46492627
42	0xbeffe86e	-0.49982017
43	0xbf06bc83	-0.52631396
44	0xbdf1d82d	-0.118088104
45	0xbecdfe2a	-0.40232974
46	0xbf0483a2	-0.51763356
47	0xbe2d146e	-0.16902325
48	0xbee95ad4	-0.4557711
49	0xbd0d9306	-0.03456404
50	0xbe43102a	-0.19049135
51	0xbf3d3701	-0.73912054
52	0xbea57f2a	-0.3232358
53	0xbdae1562	-0.08500172
54	0xbf1cff9b	-0.61327523
55	0xbe03b380	-0.12861443
56	0xbf1cacc6	-0.6120113
57	0xbf2d16d3	-0.6761295
58	0xbdea4f15	-0.11440865
59	0xbed6cd92	-0.41953713
60	0xbf06bab7	-0.52628654
61	0xbe9f7a04	-0.31147778
62	0xbf447840	-0.76745987
63	0xbe14dc72	-0.14537218
64	0xbe83efe9	-0.25768974
65	0xbb0add16	-0.0021188906
66	0xbeb2bc44	-0.3490926
67	0xbdf3e4bd	-0.11908863
68	0xbd08ac46	-0.033367418
69	0xbd941f07	-0.072324805
70	0xbe3d6854	-0.1849683
71	0xbe859052	-0.2608667
72	0xba448bc0	-0.0007497631
73	0xbe50c5d3	-0.20387964
74	0xbeea25dc	-0.4573201
75	0xbedabf50	-0.42724085
76	0xbf11550a	-0.56770384
77	0xbf4cdf6a	-0.800284
78	0xbe86f297	-0.26356956
79	0xbec11293	-0.37709484
80	0xbdf6e6a8	-0.12055713
81	0xbf03c9da	-0.51479876
82	0xbe0aa8cb	-0.13540952
83	0xbdc1592e	-0.09440838
84	0xbeca6aa6	-0.3953449
85	0xbea18fc5	-0.31555
86	0xbe18c9cb	-0.14920728
87	0xbe8dc238	-0.2768724
88	0xbe980042	-0.29687697
89	0xbee521a0	-0.44752216
90	0xbee95c3f	-0.4557819
91	0xbe6e74a1	-0.23286678
92	0xbe0f77ff	-0.14010619
93	0xbed49cd1	-0.4152589
94	0xbe9cf1f8	-0.30653358
95	0x3d8c3c1a	0.06847401

1.0.1.fn.1.3.bias f4 [48]
0	0xbf9b3aa5	-1.2127272
1	0x3c3a367a	0.011365527
2	0xbeba7ec3	-0.36424837
3	0xbe011489	-0.1260549
4	0x3e717942	0.23581412
5	0x3f8258e4	1.0183377
6	0xbd817df2	-0.0632285
7	0x3e52d099	0.20587386
8	0x3e538366	0.20655593
9	0x3ee6456f	0.4497485
10	0xbdaf9550	-0.08573401
11	0x3e364e11	0.17803217
12	0x3d550c04	0.052013412
13	0xbeaec0ea	-0.34131557
14	0x3dd317df	0.103072874
15	0x3e613217	0.21991764
16	0xbd3340ac	-0.043762848
17	0x3e4c5694	0.19954902
18	0xbf06a4d1	-0.5259524
19	0xbdcd1339	-0.10013432
20	0x3e0b1ee8	0.13586009
21	0xbdd4166b	-0.103558384
22	0xbd53d2f2	-0.051714845
23	0xbec40828	-0.38287473
24	0x3dc53d03	0.09630778
25	0x3e63b165	0.2223564
26	0xbdb54e92	-0.08852877
27	0x3d3ae7ba	0.045631148
28	0xbe39c5e8	-0.18141901
29	0x3e6ac9a5	0.22928484
30	0xbe75a73a	-0.23989573
31	0x3d90f0a3	0.07077148
32	0x3d971704	0.07377437
33	0x3d11bdc8	0.03558138
34	0xba77431f	-0.0009432304
35	0x3f5c3962	0.8602506
36	0x3e0bb792	0.13644245
37	0x3e8aa4c1	0.27078822
38	0x3ea25c81	0.317112
39	0xbf905393	-1.1275505
40	0x3df8f5a9	0.12156231
41	0x3d821ccb	0.06353148
42	0x3f27e46d	0.65582925
43	0xbec8347c	-0.39102542
44	0xbf180f84	-0.59398675
45	0xbe3c0864	-0.18362576
46	0x3e459021	0.19293262
47	0xbe1892c1	-0.14899732

1.1.0.fn.0.weight f4 [48]
0	0xba0646d2	-0.00051222474
1	0x37c0ddba	2.2991433e-05
2	0xb986c124	-0.00025702373
3	0x38efe492	0.000114389826
4	0x39a0b870	0.00030654995
5	0x39c7e753	0.00038128588
6	0xb9847af0	-0.00025268598
7	0x394567fa	0.00018826118
8	0xba38a0f5	-0.00070430274
9	0x3a2ecaa8	0.00066677714
10	0x3959c78e	0.00020769073
11	0xbb913a6a	-0.0044320123
12	0xb97eeac1	-0.0002431078
13	0xb9995b7a	-0.0002925059
14	0x39536b89	0.00020162588
15	0x39943470	0.0002826783
16	0x37de94a9	2.6533688e-05
17	0x36b0b3f9	5.2661603e-06
18	0x3741e114	1.15561015e-05
19	0xb930526a	-0.0001681537
20	0x35816f03	9.643558e-07
21	0x3a606d8f	0.00085612474
22	0xb926d905	-0.0001591184
23	0x387eecc8	6.077884e-05
24	0x35e984a5	1.7398457e-06
25	0xb74001ef	-1.1444542e-05
26	0xb9c98e53	-0.00038443747
27	0x38abf7a0	8.200039e-05
28	0x392f036c	0.00016690575
29	0xb8192a48	-3.651742e-05
30	0xb5e88498	-1.7323937e-06
31	0xb7104dd0	-8.601186e-06
32	0x3975998a	0.00023422219
33	0xb9ba191d	-0.00035495395
34	0xb8459fa2	-4.711713e-05
35	0xb90c9058	-0.00013405213
36	0xb972e6ed	-0.00023164945
37	0x37dedb8a	2.6566693e-05
38	0xb9f4ec5f	-0.00046715417
39	0x3a759508	0.00093682157
40	0x37dafad2	2.6104422e-05
41	0xb920e8e2	-0.00015345545
42	0xb7a5e512	-1.9776202e-05
43	0x39368429	0.00017406106
44	0x399ae7bd	0.00029545827
45	0x3958d711	0.00020679484
46	0xb79beb55	-1.8587025e-05
47	0xb66f4c7d	-3.5658297e-06

1.1.0.fn.0.bias f4 [48]
0	0x3984ce6f	0.00025330807
1	0x3a89f99e	0.0010526662
2	0xbbba59fd	-0.005686997
3	0x3b070c8e	0.0020606848
4	0x39fb5f5b	0.00047945496
5	0x39887ebd	0.0002603437
6	0x3b334f24	0.0027360404
7	0xba9e0ed7	-0.0012058866
8	0xbb983eb0	-0.004646145
9	0x3ac60cdf	0.0015110037
10	0xbb484fe9	-0.0030565208
11	0x39a2d5a0	0.0003105821
12	0xbba3ab61	-0.004994795
13	0xbab6449a	-0.0013905943
14	0x3b984474	0.004646832
15	0xbae2b79f	-0.0017297155
16	0x3b934261	0.004493997
17	0x37f00401	2.8612094e-05
18	0xb9454bbc	-0.00018815597
19	0xb9036b23	-0.00012533045
20	0x392d357d	0.00016518492
21	0xbb9a32ef	-0.004705779
22	0xba9c3575	-0.0011917787
23	0x3a1b5639	0.0005925629
24	0x39bdee63	0.000362265
25	0xbab46d05	-0.00137654
26	0x3a205ffb	0.0006117818
27	0x3ac78a29	0.001522367
28	0x3b72ef80	0.0037069023
29	0x3ac6cc67	0.0015167118
30	0xbae879f0	-0.0017736536
31	0xb7db939f	-2.6175576e-05
32	0x3b6b0d96	0.0035866252
33	0x3a5b307a	0.00083614106
34	0x3adb932d	0.0016752236
35	0xbb15995b	-0.0022827003
36	0xbafc9029	-0.0019269037
37	0xb8308970	-4.208967e-05
38	0x38c86afd	9.556671e-05
39	0xbb577e6c	-0.003288175
40	0x3b1a1b93	0.002351497
41	0xbac609cc	-0.0015109121
42	0x37d54dae	2.5427751e-05
43	0x38a71679	7.9673664e-05
44	0x3ba3ac7f	0.0049949284
45	0xbb2e41b6	-0.002658946
46	0x37b3ab6b	2.1418286e-05
47	0xbb034e97	-0.0020035857

1.1.0.fn.1.query.bias f4 [48]
0	0xb807911c	-3.232165e-05
1	0xb93d553c	-0.00018056197
2	0x3741e291	1.1556448e-05
3	0x380543de	3.1772877e-05
4	0x3ac083c1	0.0014687703
5	0xb8f0b048	-0.00011476927
6	0xb8cd1ead	-9.7808756e-05
7	0x35c63cb5	1.4769818e-06
8	0xb68eb31a	-4.25278e-06
9	0x36552e21	3.1766324e-06
10	0x3de91674	0.11381236
11	0xbd5fca24	-0.054636136
12	0xbe0ffe52	-0.14061859
13	0x3da6a0c9	0.08136136
14	0x3d39243c	0.04520057
15	0xbdbf9c83	-0.09356024
16	0xbcbdf1a8	-0.02318652
17	0xb98d3339	-0.0002693178
18	0xb7857513	-1.5909352e-05
19	0x3cda5649	0.026652472
20	0x351e52db	5.898016e-07
21	0xb702fcb4	-7.807441e-06
22	0xb700d0e0	-7.678027e-06
23	0x3d581343	0.052752744
24	0xbc8685ee	-0.016421285
25	0x37bfd7dc	2.2869492e-05
26	0x36b1844a	5.2904115e-06
27	0x360329fb	1.9544957e-06
28	0xb6b0bdf0	-5.2673204e-06
29	0x382aa592	4.0685358e-05
30	0x36926305	4.3626665e-06
31	0x372c682a	1.02762515e-05
32	0x3d9f82de	0.07788633
33	0xb51cd455	-5.842351e-07
34	0x37a552e5	1.9708134e-05
35	0xb5b577c8	-1.3520412e-06
36	0x379d6fcc	1.8767918e-05
37	0xb7159e89	-8.918004e-06
38	0x363e7a87	2.8383527e-06
39	0xb60205bf	-1.9374854e-06
40	0xb90de200	-0.00013531
41	0x383555d7	4.3233707e-05
42	0x3dc6844e	0.09693204
43	0x383e64f2	4.5393543e-05
44	0x370b7ced	8.314132e-06
45	0x34ceb13e	3.849945e-07
46	0x3c1a604b	0.009422372
47	0xbdbda45f	-0.09259867

1.1.0.fn.1.key.bias f4 [48]
0	0x3b452e1f	0.0030087305
1	0x3c27eb99	0.010249042
2	0xbc14942b	-0.009068529
3	0xbc2e0f0b	-0.010623704
4	0x3497ae18	2.8252612e-07
5	0x3c00dd4f	0.007865264
6	0x3c47855f	0.012177794
7	0x3c80dc33	0.01573
8	0xbb3bb0d3	-0.002863933
9	0x3a61e93a	0.00086178223
10	0x370b23c1	8.29337e-06
11	0x34edae71	4.4271613e-07
12	0x36f3daeb	7.2674497e-06
13	0x3743e165	1.16753845e-05
14	0x35892250	1.0217282e-06
15	0x3484be5f	2.472543e-07
16	0x36e76c12	6.8969175e-06
17	0x33b558e8	8.444641e-08
18	0xbd6e2586	-0.058141254
19	0xb7f65034	-2.9362833e-05
20	0xba4c1aad	-0.00077859574
21	0xbbc5a6c4	-0.006031843
22	0xbb4722d8	-0.0030385759
23	0xb6c24daa	-5.790692e-06
24	0x36177b7a	2.2572626e-06
25	0x3a587857	0.0008257678
26	0x3a5d9dae	0.0008453977
27	0xbd2b74f5	-0.041859586
28	0x3e60f324	0.21967751
29	0x3e4db129	0.20087112
30	0x3dbb0949	0.091326304
31	0x3dd0572a	0.10172875
32	0x36fc5101	7.5196153e-06
33	0x3ca9cf9c	0.020728879
34	0x3d30748d	0.0430799
35	0xbb895f75	-0.0041922876
36	0x3c473d16	0.01216056
37	0xbc5bbff7	-0.013412467
38	0x3c2a65e8	0.010400273
39	0x3c9e7d5f	0.019346891
40	0xb988cdcf	-0.0002609328
41	0x39967a08	0.0002870115
42	0xb9e304ad	-0.00043300298
43	0x398bbfc8	0.00026655034
44	0xbc5db1ed	-0.01353119
45	0x3a26a3aa	0.00063567853
46	0x36bb7d93	5.587653e-06
47	0x39fc263f	0.0004809368

1.1.0.fn.1.value.bias f4 [48]
0	0xbb9f1fd4	-0.004856089
1	0xbba987db	-0.005173666
2	0xbba1a7ba	-0.0049333246
3	0xbb989bdb	-0.0046572513
4	0xbba7bb54	-0.005118767
5	0x3bc17866	0.005904245
6	0xbb26170c	-0.0025343327
7	0x3ba4ab16	0.005025278
8	0x3b9df22f	0.0048201303
9	0xbb969e43	-0.004596503
10	0x3b581e4d	0.0032977045
11	0x3af468c3	0.0018646944
12	0x3ba5c9b6	0.005059446
13	0x3ba2ffb7	0.0049743312
14	0xbb8f06e9	-0.0043648374
15	0xbba44e93	-0.0050142496
16	0x3b974145	0.004615935
17	0xbba512be	-0.0050376346
18	0x3b95a0d6	0.0045662923
19	0xbbb5b27f	-0.00554496
20	0xbb9977b7	-0.0046834606
21	0x3bb35c79	0.00547367
22	0xbbab5bb2	-0.005229437
23	0x3b9533f5	0.004553313
24	0xbba5d212	-0.0050604427
25	0x3b878b16	0.0041364534
26	0xbba02d6b	-0.0048882267
27	0x3b92fc25	0.0044856244
28	0xbbcaa8dc	-0.0061846804
29	0xbbacda34	-0.0052750353
30	0x3b9a623b	0.004711417
31	0xbbb563e3	-0.005535589
32	0xbb994c22	-0.004678265
33	0x3b9c8f2a	0.0047778087
34	0xbb4a88a3	-0.0030904196
35	0xbba4d561	-0.0050303196
36	0xbba1f9cb	-0.0049431077
37	0x3ba6241f	0.005070224
38	0x3bb6b0a8	0.0055752583
39	0x3b9d2889	0.004796092
40	0x3b870819	0.0041208384
41	0x3bb57898	0.0055380575
42	0xbbb3101b	-0.0054645664
43	0xbb758954	-0.0037465887
44	0xbb9d41d2	-0.004799106
45	0x3bb92a00	0.0056507587
46	0xbb6954bb	-0.0035603482
47	0xbb7930e1	-0.003802352

1.1.0.fn.1.out.bias f4 [48]
0	0xbf8fafce	-1.1225526
1	0xbd570725	-0.052497048
2	0xbebdb65b	-0.3705319
3	0xbd113ce8	-0.035458475
4	0x3de02737	0.1094498
5	0x3f6cc0db	0.92481774
6	0xbde981ba	-0.114016965
7	0x3e2145e4	0.15749317
8	0x3e743ca2	0.23851255
9	0x3ee7f348	0.45302796
10	0xbe01f1f3	-0.12689953
11	0x3e191dec	0.1495282
12	0x3dc2acba	0.09505601
13	0xbea7a126	-0.32740134
14	0x3e1244ef	0.14284109
15	0x3e992991	0.29914525
16	0xbdb86c32	-0.090050116
17	0x3e83ff87	0.2578089
18	0xbe9a5e5b	-0.30150113
19	0xbb510fb8	-0.0031900238
20	0x3e14ff96	0.14550623
21	0xbd6c6026	-0.05770888
22	0xbe4e5391	-0.20149066
23	0xbeb98d19	-0.3624046
24	0x3d2fa2eb	0.04287998
25	0x3e704706	0.23464593
26	0xbe125a21	-0.14292194
27	0xbe02cc67	-0.12773286
28	0xbdf0c74f	-0.11756765
29	0x3ea5d2af	0.323873
30	0xbe8406c9	-0.25786427
31	0x3e281b6a	0.16416708
32	0x3cefb893	0.029262817
33	0x3ce461ad	0.027878607
34	0xbd19d14b	-0.037553113
35	0x3f0de434	0.55426335
36	0x3e0acdbc	0.13555044
37	0x3e7e739a	0.24848786
38	0x3eae8f6f	0.34093806
39	0xbf556242	-0.83353055
40	0xbd4bebbd	-0.049785364
41	0x3ca59d31	0.020216556
42	0x3f290096	0.6601652
43	0xbe0abd0c	-0.13548678
44	0xbedff631	-0.43742517
45	0xbd08f49a	-0.033436395
46	0x3e8677e5	0.26263347
47	0xbc6f7521	-0.014615328

1.1.1.fn.0.weight f4 [48]
0	0x3f969398	1.1763792
1	0xb935297c	-0.00017276959
2	0x3fcc5ea9	1.5966388
3	0x3fd013a7	1.6255997
4	0x4003bc3c	2.058364
5	0x3fc26bcb	1.5189146
6	0x3f37a812	0.7174083
7	0x3f1c74e8	0.61115885
8	0x3f82a38c	1.020616
9	0x3fceaee3	1.6147121
10	0x3f4f6c4b	0.81024617
11	0x3faedd8b	1.366136
12	0xb8de1bb4	-0.00010590945
13	0x3ffad53d	1.9596325
14	0x40099d14	2.1502123
15	0x3fc43d83	1.5331272
16	0xb9a9886a	-0.00032335828
17	0x4024674a	2.5688043
18	0x3fbf24a6	1.4933059
19	0xbb039120	-0.0020075515
20	0x397928c3	0.00023761675
21	0x3fd93f41	1.6972429
22	0x3fd6296e	1.6731393
23	0x3fe576d8	1.7926893
24	0x3f97dc08	1.1864023
25	0x3f63009a	0.8867279
26	0x3faacd18	1.334384
27	0x3f0058d0	0.5013552
28	0x3fba8879	1.4572898
29	0x3ff4057a	1.9064171
30	0x3a68b25f	0.0008876677
31	0x3f8fe92b	1.1243032
32	0x3dd7cc0f	0.10536968
33	0x40267500	2.600891
34	0x3fd1cde4	1.6390958
35	0x3fae3597	1.3610104
36	0x3f986a1d	1.1907383
37	0x3facea4f	1.3509005
38	0x3fd12e38	1.634223
39	0x3fbec5c0	1.4904099
40	0x3feca30b	1.8487257
41	0x3fb7fcc1	1.4374009
42	0x3fc88d05	1.5668036
43	0x3fa88b50	1.3167515
44	0x3f7b2058	0.9809623
45	0x3f2db32c	0.6785152
46	0x3fdb0938	1.7112188
47	0xba17a98b	-0.0005785457

1.1.1.fn.0.bias f4 [48]
0	0xbef3e584	-0.47636044
1	0xbe288c19	-0.16459693
2	0xbee55535	-0.4479157
3	0xbf0d6dd6	-0.5524572
4	0x3e40c8ac	0.1882655
5	0x3e1dbcc2	0.15404037
6	0xbea6a0bb	-0.32544503
7	0x3dde140c	0.108436674
8	0x3f1c7cc5	0.61127883
9	0x3e92970f	0.28630874
10	0x3cba5324	0.022744723
11	0x3eba0e1c	0.3633889
12	0xbb5b134b	-0.0033428248
13	0xbe88e427	-0.26736566
14	0xbec2ddf9	-0.38059977
15	0x3f38a5a2	0.72127736
16	0x3e73a208	0.23792279
17	0x3ee38704	0.44438946
18	0xbf446378	-0.7671428
19	0xbe5db759	-0.21651973
20	0x3a9fcdaa	0.001219203
21	0x3e1bebfe	0.15226743
22	0xbf109f7e	-0.56493366
23	0xbe989e93	-0.29808483
24	0x3e8266a3	0.2546893
25	0x3ed0e1e2	0.40797335
26	0xbea75030	-0.32678366
27	0x3e8961d1	0.2683244
28	0xbeb6df6f	-0.3571734
29	0x3f0219b1	0.5082045
30	0xbea89dab	-0.3293279
31	0xbd85018a	-0.06494434
32	0x3e01cbf4	0.12675458
33	0xbe409245	-0.18805797
34	0xbdaaf8d8	-0.083482444
35	0x3f4648bf	0.7745475
36	0x3e603a90	0.2189734
37	0x3f094c3b	0.53631943
38	0x3f0b4d07	0.5441441
39	0xbf33dda6	-0.70260084
40	0x3db5fafc	0.08885762
41	0x3e348a34	0.17630845
42	0x3f467902	0.77528393
43	0xbe94f00e	-0.29089397
44	0xbf3e29e7	-0.7428269
45	0xbe2171ad	-0.1576602
46	0xbe1abced	-0.15111132
47	0xbec820bb	-0.3908747

1.1.1.fn.1.0.bias f4 [96]
0	0xbe2ff350	-0.1718266
1	0xbe3999e7	-0.18125115
2	0xbeb262c5	-0.3484098
3	0xbed9bee3	-0.42528448
4	0xbecba074	-0.39770854
5	0xbe57e76d	-0.21084376
6	0xbf0ad061	-0.5422421
7	0xbea9a75e	-0.33135504
8	0x3e17dd0c	0.14830416
9	0xbebcbc9f	-0.36862656
10	0xbee81344	-0.45327199
11	0xbe8e38ea	-0.27777797
12	0xbea447a2	-0.32085901
13	0xbe370987	-0.17874728
14	0xbe62ee66	-0.22161254
15	0xbecd872c	-0.4014219
16	0xbe8df73a	-0.2772768
17	0xbd0782c5	-0.033083696
18	0xbd3d3018	-0.046188444
19	0xbe96d3d3	-0.29458484
20	0xbed26e9a	-0.41100007
21	0xbf0b9e60	-0.54538536
22	0xb8ee6d73	-0.00011369111
23	0xbe8267a0	-0.25469685
24	0xbebb4de7	-0.36582872
25	0xbf103069	-0.5632387
26	0xbecdf700	-0.4022751
27	0xbecdd3f1	-0.4020076
28	0xbee090b0	-0.43860388
29	0xbe832b51	-0.25618985
30	0xbe64a4a7	-0.22328435
31	0xbef505b2	-0.47855908
32	0xbefaca65	-0.4898254
33	0xbd9ab5e0	-0.07554221
34	0xbd700797	-0.05860099
35	0xbe0517ed	-0.12997408
36	0xbe538085	-0.20654495
37	0xbe9ecd58	-0.3101604
38	0xbec231f5	-0.3792874
39	0xbe75c744	-0.24001795
40	0xbf37b3d8	-0.71758795
41	0xbed41070	-0.4141879
42	0xbefbddd0	-0.49192667
43	0xbf074bbe	-0.5284995
44	0xbe9d6318	-0.30739665
45	0x3df401c6	0.11914401
46	0xbd87b8a5	-0.06627015
47	0xbea4d6a4	-0.32195008
48	0x3c37934c	0.011204552
49	0xbe7ad8c2	-0.24496749
50	0xbe64368e	-0.22286436
51	0xbe544141	-0.20728017
52	0x3cae526a	0.021279532
53	0xbe9bd331	-0.30434564
54	0xbe8620a1	-0.2619677
55	0xbe9875df	-0.29777429
56	0xbda160f9	-0.07879824
57	0xbe84a6d3	-0.25908527
58	0xbe95fa64	-0.29292595
59	0xbe943243	-0.28944597
60	0xbea1d192	-0.31605202
61	0xbf0c1ac6	-0.54728353
62	0xbd9642b6	-0.07336943
63	0x3dc4fdc4	0.096187145
64	0xbebd3737	-0.36956188
65	0xbec98f7d	-0.39367285
66	0xbdd90c0e	-0.105980024
67	0xbe356d20	-0.17717409
68	0xbeca9ee9	-0.39574364
69	0xbe25d2f7	-0.16193758
70	0xbe9ba3a7	-0.30398294
71	0xbf2bc28c	-0.6709373
72	0xbeb45a34	-0.3522507
73	0x3d80d617	0.062908344
74	0x3c39fb06	0.011351353
75	0xbe81d6c9	-0.2535918
76	0xbe5249e2	-0.20535997
77	0xbdfcd783	-0.12345793
78	0xbdeec057	-0.1165778
79	0x3d81953e	0.06327294
80	0xbde97c3b	-0.11400648
81	0xbf2e4fbc	-0.68090415
82	0xbf149188	-0.58034563
83	0xbdedcc15	-0.11611191
84	0xbf02dfb8	-0.5112262
85	0xbeaa6454	-0.3327967
86	0xbde24852	-0.1104895
87	0x3f6138db	0.8797738
88	0xbed49f1d	-0.41527644
89	0x3d2b4276	0.04181143
90	0xbde6c283	-0.11267569
91	0xbe3d002a	-0.18457094
92	0xbd733c3c	-0.059383616
93	0xbe66d4ea	-0.22542158
94	0xbf1837fa	-0.59460413
95	0x3ddd8278	0.108159006

1.1.1.fn.1.3.bias f4 [48]
0	0x3eb92c32	0.3616653
1	0x3dc83fe3	0.097778104
2	0x3eb8a168	0.36060643
3	0x3e24d9f7	0.16098772
4	0xbe9365ee	-0.28788704
5	0xbf5fb940	-0.87392044
6	0x3dfe0baa	0.124045685
7	0x3d84e8ca	0.064897135
8	0xbe8367c0	-0.25665092
9	0x3e5524cb	0.20814817
10	0xbd304171	-0.04303116
11	0xbec10bc3	-0.37704286
12	0xbe1928a6	-0.14956912
13	0x3edbcdd8	0.42930484
14	0xbd5b584a	-0.053550996
15	0xbec2b7e6	-0.38030928
16	0x3d00924d	0.031389523
17	0xbfaf2f8d	-1.3686386
18	0x3f663a66	0.8993286
19	0xbe4fa8eb	-0.20279281
20	0x3e2db558	0.16963708
21	0xbcf2f288	-0.029656664
22	0x3eea213e	0.45728487
23	0xbd59635f	-0.053073283
24	0x3db99a46	0.090626284
25	0xbdddc96f	-0.10829436
26	0x3f158e01	0.58419806
27	0xbdf95d5d	-0.12176011
28	0x3eca1e18	0.39476085
29	0xbe9d73f1	-0.3075252
30	0x3d935a2f	0.071949355
31	0x3e041282	0.12897685
32	0xbd06f810	-0.032951415
33	0x3e08750d	0.13325901
34	0xbe076f7d	-0.13226123
35	0xbfa0c359	-1.2559615
36	0xbcf763c4	-0.03019894
37	0xbe969715	-0.2941214
38	0xbe925bb7	-0.28585598
39	0x3f77f08b	0.96851414
40	0x3e020ed7	0.12700973
41	0x3d3b3787	0.045707252
42	0xbf2cd124	-0.67506623
43	0x3eeaf796	0.45892018
44	0xbd44b56b	-0.048024576
45	0xbde3ce2b	-0.11123308
46	0x3f31ef29	0.69505554
47	0xbd6f980e	-0.05849462

2.1.weight f4 [48]
0	0x3ec7a05a	0.38989526
1	0x4027f18a	2.6241174
2	0x3f512b9c	0.8170717
3	0x400e519e	2.2237315
4	0x3f66784f	0.90027326
5	0x3ec0f9df	0.37690637
6	0x3f54a86a	0.8306948
7	0x3fe3538e	1.7759874
8	0x3ed81dc0	0.42210197
9	0x3f136cf8	0.5758815
10	0x402cac76	2.6980262
11	0x3f174ebb	0.5910451
12	0x40044c43	2.0671546
13	0x3f255174	0.6457741
14	0x3fed5176	1.8540485
15	0x3f65437a	0.89556086
16	0xbae0fc7b	-0.0017165089
17	0x3f152dac	0.58272815
18	0x3f11958d	0.5686882
19	0x3fe348d9	1.7756606
20	0x405bb11b	3.4326847
21	0x3f52bd2d	0.8231991
22	0x3f47554f	0.77864546
23	0x3e0cdfc1	0.1375723
24	0x4018b6cb	2.3861568
25	0x3ffb34d1	1.9625493
26	0x3f28261c	0.6568315
27	0x402d3cb4	2.70683
28	0x3edd1ed2	0.43187577
29	0x3f50b265	0.8152221
30	0x3ff97dde	1.9491537
31	0x401eb1f9	2.4796126
32	0x40266e8e	2.6004977
33	0x3f1086ee	0.56455886
34	0x3f2a52f2	0.66532815
35	0x3e9a930a	0.30190307
36	0x3ee98048	0.45605683
37	0x3f42b0d7	0.76051086
38	0x3f552b5f	0.83269304
39	0x3e6df27b	0.2323703
40	0x3ed987e5	0.42486492
41	0x3c9b472a	0.018954832
42	0x3f1df102	0.61695874
43	0x3ed57596	0.41691273
44	0x3ceb8afa	0.028752793
45	0x3f4b6619	0.79452664
46	0x39ff5bd1	0.000487058
47	0x4026d5eb	2.6068065

2.1.bias f4 [48]
0	0x3f1c1774	0.60973287
1	0xbd5b76d9	-0.05358014
2	0x3e7837ba	0.24240008
3	0xbe37acb7	-0.17936979
4	0xbdb07646	-0.08616309
5	0xbefb406c	-0.49072587
6	0xbd72559a	-0.059163667
7	0xbe26b71a	-0.16280785
8	0x3ce37b91	0.027768882
9	0xbe6ac9d4	-0.22928554
10	0xbd2965b6	-0.041356765
11	0x3de19564	0.11014822
12	0x3d99f809	0.07518012
13	0x385fd1fe	5.3362914e-05
14	0x3eaccfa2	0.3375216
15	0xbe7668c0	-0.24063396
16	0x3b6943ea	0.0035593458
17	0xbe8af4cd	-0.27139893
18	0x3e8dbf12	0.27684838
19	0x3e5b57c4	0.21420199
20	0x3e7dac3e	0.24772736
21	0xbe36889e	-0.17825553
22	0xbe39a897	-0.18130718
23	0x3c0af92d	0.00848226
24	0xbd1737a4	-0.036918297
25	0xbd09b778	-0.033622235
26	0xb9c45ee8	-0.00037454744
27	0xbd2c03cf	-0.04199582
28	0xbdfcb880	-0.12339878
29	0x3d5c735e	0.05382096
30	0x3dcbcd0b	0.09951218
31	0x3e746395	0.23866113
32	0xbebc28f0	-0.36749983
33	0xbdd6667d	-0.10468767
34	0x3cb38d23	0.021917885
35	0xbe0b1934	-0.13583833
36	0xbdbdf1d9	-0.092746444
37	0x3d54ff24	0.052001134
38	0xbe556a65	-0.20841368
39	0x3d8e5e1a	0.06951542
40	0x3ce65e06	0.028121006
41	0x3b678bd3	0.0035331144
42	0xbca31b75	-0.019910553
43	0xbd61c23c	-0.055116877
44	0x3ddd10ee	0.10794245
45	0x3b2c9967	0.0026336552
46	0x39d057bd	0.00039738222
47	0xbd2f18b6	-0.042748176
