models/vit_2_6/model.pth (torch, 958801 bytes, 160 tensors)

0.cls_token f4 [1, 1, 48]
00000000: 1094 a53e 072e 613d eaea 6a3e 6862 663d
00000010: 772f cdbd 7640 adbe 995e 86be d5c5 ddbc
00000020: 5325 093d fe0c 0a3f bf06 e3be 5972 81be
00000030: 5be8 7b3d cb0c 233f 3260 2dbe 3902 57be
00000040: ce1b 823e 5ab3 8cbf 9d18 013f e8f9 40bd
00000050: 0d13 2d3e ab8d f13c 3b1f 503e 4c72 9a3e
00000060: 3868 823d 0dda 9f3d cc46 2cbd de40 cdbc
00000070: 17e3 903d d8eb a3bc 49c8 12bd 0bc3 333d
00000080: 1be1 693d 3ac5 253e 1977 153e a49f 4dbf
00000090: c98d a93a ce07 f3bd 8169 8fbe 0d7d 703f
000000a0: 81b1 e13e b761 023e 52e7 57be 7bf9 1e3f
000000b0: 7eb2 a6bd 49e2 9cbd 280c 783f 261e 86bc
0.32339525 0.054975536 0.22941175 0.05624619 -0.10018819 -0.33838242 -0.26244047 -0.027071873
0.03348286 0.53926075 -0.44341084 -0.25282553 0.06150089 0.63691396 -0.16931227 -0.20996942
0.25411838 -1.0992234 0.5042818 -0.04711333 0.16901799 0.029486498 0.20324413 0.30165327
0.063675344 0.07805262 -0.042059705 -0.025055345 0.07074564 -0.02000992 -0.035835538 0.04388718
0.057099443 0.16188517 0.14596213 -0.8032172 0.0012935932 -0.11866723 -0.2801018 0.9394081
0.44080737 0.12732588 -0.21084335 0.62099427 -0.081395134 -0.07660348 0.9689355 -0.016371798

0.positions f4 [5, 48]
00000000: 0f94 a53e fb30 613d 66ea 6a3e a165 663d
00000010: 652e cdbd 1a40 adbe a35e 86be 0dc2 ddbc
00000020: cc27 093d 250d 0a3f da06 e3be 2272 81be
00000030: 11e4 7b3d fc0c 233f 835f 2dbe 2cff 56be
00000040: bf1a 823e 7ab3 8cbf bf18 013f 95fd 40bd
00000050: 3113 2d3e 2e84 f13c fc1f 503e e671 9a3e
00000060: 5d67 823d 5eda 9f3d 4e45 2cbd 734c cdbc
00000070: 6fe4 903d e0e6 a3bc 3ec7 12bd eebf 333d
00000080: b0df 693d 71c4 253e 8177 153e 1f9f 4dbf
00000090: ae6b a93a 4508 f3bd 4e69 8fbe 0e7d 703f
000000a0: d8b1 e13e ad60 023e 71e7 57be 57f9 1e3f
000000b0: caaf a6bd 73e1 9cbd 000c 783f 9511 86bc
000000c0: 1cc6 8ac0 f606 d5be 2c37 ad3f 6f67 37c0
000000d0: 3821 21c0 3e51 0ec0 874d 3740 4651 2e40
000000e0: 417b 9e3f 4670 f43c a8ca fe40 6df6 10c0
000000f0: 897b b73e 9502 bf3f 3d0d 393f 0bd5 c83d
00000100: ab50 f3bc ce2e 8c40 4d17 b8bc b05a 6c3f
00000110: 6770 95bf b4ab c63e f5a3 93c0 7922 2ec0
00000120: 0df6 c4bd c93f 653e 6ec5 dd3f 2799 2bbe
00000130: c642 13c0 b80d ef3f 9042 12c0 f7cf b8bd
00000140: 10a1 5f3e 35aa dfbf 2f03 7ebf 1ddb 7e40
00000150: fa98 b53f 9bd6 5b3f 6fb3 57bf 4db6 2ac0
00000160: dd17 dbbe 7f41 04bf c2ee 3e3f 2316 31bf
00000170: 87ce 8b3e 55a9 933f 2e73 36c0 0ac4 2abe
00000180: 7244 8cc0 f133 77bf cd0b 0340 13ad 2fc0
00000190: be58 f6bf 8f0d 0ec0 b033 e73f 5945 4940
000001a0: 854b 8dbf d6c6 c3bf 8d8a c740 ad72 9d3f
000001b0: 9a90 1e3e 251d 8240 1e63 893f d13a d83f
000001c0: 7346 08bf 8539 bb40 ae7f a1bd b045 2e3f
000001d0: 3ead 75bf 26ec a93e e382 49c0 7aec 87c0
000001e0: dbdb 623f 1f1b 963e 9151 e23f 5fee 69be
000001f0: 1baa 04c0 9796 4740 f04b 12c0 9614 4f3e
00000200: 64b1 4abf 0aa2 2f3f 2868 b4bd dccc 5f3f
00000210: bde3 55c0 3e96 a13e a15b 633f 100d 473f
00000220: fc1b 4d3f b0eb 13c0 2714 3dbe ab71 d1bf
00000230: 9bf1 9ebf 7b00 a03e 07ab 9dc0 8a55 443e
00000240: 8ba3 773f 07b0 ffbe b906 40c0 42b4 0e40
00000250: 7633 df3f 53c9 8940 869b 37be b293 13c0
00000260: 5672 1ac0 ec48 1a3f 5e8b 7bc0 5ca8 fb3e
00000270: 166a 50be 6053 6abe 3816 fcbf 2b1c a7bd
00000280: ba7e 87be 2553 17bf 164f 17bf f947 83bf
00000290: 648e 9e3f 98a8 ee3d db90 7340 14eb 1940
000002a0: 3301 253f f5e7 73bf 1041 eabf e446 94bd
000002b0: 2477 73bd 99c1 1a3e 6166 5b40 e964 23bf
000002c0: 7e0c 9abf 5dac 8f40 3016 2c3f 34ea 04c0
000002d0: 7daa 80be f2f9 5ec0 8784 b43d d21c 473f
000002e0: 9799 883f b860 753f 4a33 18c0 dd0e 323d
000002f0: 7b7b 10c0 f76c 55bf de52 4240 174a 503e
00000300: c98f a33f 9aa0 993f 8e7f b6bf 8ec5 1540
00000310: a3a9 d43f 5c08 4540 6a7c 02c0 cf07 22c0
00000320: b6a0 2240 47cb c63e 013b f9bf a8db 39bf
00000330: 5244 38bf ac41 9cc0 4b0f 31bf d7fa 72bf
00000340: ed73 803f 1429 8ac0 5bf2 143f 4b8b e03c
00000350: a419 f5be 1539 e33e fdb5 0240 2554 4140
00000360: d516 d1bf 718a 853c e3cf cdbf 4b73 65bc
00000370: 7b30 4240 1589 4bc0 6447 2940 9223 67be
00000380: a79b e83f 8676 98c0 77c4 03be 37ad 8dbd
00000390: 4452 1e40 4f4f 3040 5bfc b6bc 33cc 373f
000003a0: cabc 23c0 3d27 1e3f 36bf 4040 46d8 e23f
000003b0: 1c52 a240 71d2 083f 9251 0ac0 be21 66be
0.32339522 0.054978352 0.22940978 0.056249265 -0.10018615 -0.33837968 -0.26244077 -0.02707007
0.03348522 0.53926307 -0.44341165 -0.2528239 0.061496798 0.6369169 -0.16930966 -0.20995778
0.2541103 -1.0992272 0.50428385 -0.047116835 0.16901852 0.029481973 0.20324701 0.30165023
0.06367371 0.07805322 -0.04205828 -0.025060868 0.0707482 -0.02000755 -0.035834543 0.04388421
0.05709809 0.16188218 0.14596368 -0.80320925 0.0012925768 -0.11866812 -0.2801003 0.9394082
0.44080997 0.12732191 -0.21084382 0.6209921 -0.08138998 -0.076601885 0.9689331 -0.016365806
-4.3366833 -0.41606873 1.3532462 -2.865688 -2.5176525 -2.2237086 2.864107 2.7237105
1.2381364 0.029838692 7.9622383 -2.2650406 0.35836437 1.4922663 0.72285825 0.0980626
-0.029701551 4.3807135 -0.022472048 0.9232588 -1.1674927 0.38802874 -4.6137643 -2.720854
-0.09617243 0.22387613 1.7325876 -0.16757642 -2.3009505 1.8676062 -2.2853127 -0.09024041
0.21838784 -1.7473818 -0.9922361 3.9821236 1.418731 0.85874337 -0.8425817 -2.6673768
-0.42791644 -0.5166244 0.74583066 -0.691744 0.27306005 1.1536051 -2.85078 -0.16676345
-4.383355 -0.9656363 2.0475953 -2.7449386 -1.9245832 -2.2195776 1.8062649 3.1448576
-1.1038672 -1.5295055 6.235663 1.2300621 0.15484849 4.0660577 1.0733373 1.6892949
-0.53232497 5.8507714 -0.07885681 0.68075085 -0.9596747 0.3318798 -3.1486137 -4.247617
0.8861672 0.29317567 1.7681142 -0.22844838 -2.0728824 3.1185663 -2.2858849 0.20222697
-0.79176927 0.68606627 -0.08808929 0.87421966 -3.342025 0.31559938 0.8881169 0.77754307
0.80120826 -2.3112602 -0.18464719 -1.6362814 -1.2417482 0.31250367 -4.9271274 0.19173256
0.9673392 -0.49938986 -3.0004103 2.229752 1.743758 4.3058257 -0.17930421 -2.3058896
-2.4132285 0.6026752 -3.9303813 0.49151886 -0.20352969 -0.22883368 -1.9694281 -0.081596695
-0.26463872 -0.59111243 -0.5910505 -1.0256339 1.2387204 0.116532505 3.8057163 2.404973
0.64454955 -0.95275813 -1.8301105 -0.07240084 -0.059439793 0.15112914 3.4281237 -0.6382585
-1.2035062 4.4897904 0.67221355 -2.0767946 -0.25130072 -3.4840055 0.0881434 0.7777835
1.0671872 0.95850706 -2.3781304 0.043471206 -2.2575366 -0.8336939 3.0363078 0.20340763
1.2778255 1.2002137 -1.4257677 2.3401828 1.6614269 3.0786352 -2.0388436 -2.5317266
2.541059 0.38826963 -1.9471132 -0.72600794 -0.7197925 -4.8830166 -0.6916396 -0.94914
1.0035378 -4.3175144 0.58182305 0.02741017 -0.47871125 0.44379488 2.0423577 3.0207608
-1.6335093 0.016301366 -1.6079067 -0.014004539 3.034209 -3.1802418 2.6449823 -0.22572163
1.8172501 -4.764468 -0.12867914 -0.06917804 2.473771 2.7548406 -0.02233713 0.7179596
-2.5583978 0.6177862 3.0116706 1.7722251 5.072523 0.5344611 -2.1612287 -0.22473809

0.projection.weight f4 [48, 3, 16, 16]
00000000: ab30 38ba 712b e6b9 ea3d 79ba f926 d6ba
00000010: bcf0 03bb 2e3d 6bbb 4716 30bb 2b1c 32bb
00000020: 165b 8cbb 5de2 08bc 38bd f1bb 4754 d6ba
00000030: b008 d9ba 5fa3 9cba a658 23ba 8ba7 5bbb
00000040: 7642 d3ba 9c59 04bb 124e d8ba 99d8 f6ba
00000050: f549 90ba 4510 34bb 528b 90bb e3e6 82bb
00000060: 68aa e7bb fd6f 57bc f171 48bc 038d 06bb
00000070: f8b0 40bb 4db4 15bb 8067 90bb 134f 04bc
00000080: c20f beba 95e8 0bbb 13a2 4dbb e8cf c8ba
00000090: c63a 0cba f985 2aba a836 8cba 7833 e1ba
000000a0: 987e 5cbb 7f6f b9bc e022 64bc 36e0 43bb
000000b0: f67f a0bb ee7c 4dbb 3c77 98bb bd20 d3bb
000000c0: cf5c 2838 6703 72b8 e881 85ba b078 85ba
000000d0: 2b2e 10b8 4edb 88b8 66f3 34ba 2def 8bba
000000e0: 2a37 7fbb 6b58 82bd 81ca cbbd b46a 92bd
000000f0: ced5 71bc 408d 36bb e21e 6ebb 1764 3bbb
00000100: 4560 0439 f470 043a e3ae d439 d879 54bb
00000110: c426 0ebb 37b0 1eba d92b 2db9 b058 64bb
00000120: 4d03 2fbb 8882 2ebb 7c2b 80bc faa0 c2bb
00000130: fb8b b4bb 4be3 05bb 8a06 dfba 2e7b 37ba
00000140: 3777 d5b9 2c87 ec39 e2d3 fc39 9cef 61ba
00000150: f595 0eb9 e36b a8b9 ca76 d4ba 8ed2 b2bb
00000160: ad4f 94bc 2f21 aebc 4082 0dbd f07c 50bc
00000170: 8817 32bb ee43 8eba 0c8a f7b9 0dd4 ebb8
00000180: d15c 11bb bfd5 8439 42a7 113a 4fc4 1fb9
00000190: d00c 0bba 9876 b6ba e5c2 57bb ac55 55bb
000001a0: cc0c 3fbb c5af 80bb 019b c7bb 787b 83bb
000001b0: 8083 6aba 1318 d8ba 2a4c 7bba f602 16b9
000001c0: 356c 99bb fe38 40bb 1b27 f7ba d7fd 5aba
000001d0: 600a 5bbb d20c 43bb 8219 2abb 4030 78bb
000001e0: 6274 0abb 907b 8bba 9429 36bb 9aa7 15ba
000001f0: a3a0 c9b9 e291 0bb8 a0d8 5dba 4beb 1339
00000200: 3068 23bb 195c 42ba e4ed 4bbb 5dce 9ebb
00000210: f5fd 95bb 9f66 4cbb 6154 1abb 8d31 94bb
00000220: 93b3 85ba ac8e bcb9 9e48 95b9 3d6e 2eba
00000230: 9dda 04bb a43a ddba d398 d5ba a5e2 38ba
00000240: 302d c4ba 087d ec38 257b 93bb a8de 52bb
00000250: 612d afbb 02d5 89bb 4d93 afba 3551 03bb
00000260: bf7e 29bb 5721 cbba 3839 69ba 3a7e 1eba
00000270: c2d7 23bb a259 01bb 4963 00bb 8e3a 27bb
00000280: c669 37b8 8dee 483a 1c13 8fb7 9b52 56b8
00000290: e377 c3ba 51e4 a8ba 7985 81ba ff4d 89ba
000002a0: 56c6 11bb 3736 00bb 90ca 31ba 4aaa 1bba
000002b0: 253b 5db9 f63c 13ba 1b30 8ab9 cba6 0638
000002c0: 5781 51ba fe5e 0c39 a24c 4839 6c1e 46b9
000002d0: 07dc 4cb8 ba2d 9db9 b933 75ba edb1 6aba
000002e0: 1d5e 4bba 6dae d5ba 1243 aeba 0855 18ba
000002f0: fb5d c2b9 dd3c 92ba 956f 83ba ecbd 5eba
00000300: ef21 bbba 2721 3fba 8126 4939 a054 403a
00000310: 170f a6b8 3616 2d3a d660 27ba 7174 57ba
00000320: 13e2 56ba dd0c 8fba 1efe 99ba 7020 80ba
00000330: 1e22 8eba 5835 48bb dea2 2fbb 06e4 57bb
00000340: 77b1 6c3a f2ab c639 9f5f 0d3b 23fd 0b3b
00000350: e885 aa3a 099f 953a b5b4 8f37 3100 eeb9
00000360: 589e 19ba e73f 6aba 839e 7bba ed77 9eba
00000370: a584 ddba a319 bdba 7821 a6ba 169f 15bb
00000380: 48b0 3b3b 5d37 303b 9e46 7f3b afd2 873b
00000390: 772d 4f3b ba9e 093b 6c93 263b 2c3e 633a
000003a0: 83ea 4c3a 8ea8 273a fa9a 2e38 233c 8d39
000003b0: 5ce0 f1b9 2849 ad39 8caf a83a 44d8 2339
000003c0: c008 b83b 873f d23b 8bf5 003d a093 ba3d
000003d0: eb08 363e 9381 533e fa20 623e f74c 473e
000003e0: 75eb 2b3e 1940 1b3e 3fbb 063e b5b1 e03d
000003f0: 9562 763d f785 b93b be9e 533b b1ae 013b
-0.0007026295 -0.00043901385 -0.0009507822 -0.0016338519 -0.0020132503 -0.003589462 -0.0026868747 -0.0027177434
-0.004283319 -0.00835475 -0.007377293 -0.0016352021 -0.0016558375 -0.0011950544 -0.0006231166 -0.0033516611
-0.0016117829 -0.0020195013 -0.0016502759 -0.0018832862 -0.0011008369 -0.0027475518 -0.0044111395 -0.003994809
-0.0070698746 -0.013149259 -0.012234197 -0.0020530827 -0.0029402357 -0.0022843063 -0.0044068694 -0.008075493
-0.0014500546 -0.0021348346 -0.0031377121 -0.001532075 -0.0005349334 -0.0006504949 -0.0010697441 -0.0017181477
-0.0033644792 -0.022636173 -0.0139243305 -0.0029888279 -0.0048980666 -0.0031354981 -0.0046528857 -0.0064431117
4.0140756e-05 -5.7700465e-05 -0.001018581 -0.0010183062 -3.4375273e-05 -6.525834e-05 -0.0006902724 -0.0010676138
-0.0038942792 -0.06364521 -0.09950734 -0.07149258 -0.014760448 -0.0027855188 -0.0036334326 -0.0028593594
0.00012624364 0.0005052232 0.00040566092 -0.0032421257 -0.0021690587 -0.000605348 -0.000165149 -0.00348429
-0.0026704848 -0.0026628096 -0.015645735 -0.0059396 -0.005509851 -0.0020429667 -0.0017015499 -0.0006999251
-0.00040715348 0.0004511414 0.0004822305 -0.00086187734 -0.00013598039 -0.0003212384 -0.0016209718 -0.005457229
-0.018104399 -0.021256058 -0.034548044 -0.0127251 -0.002717467 -0.0010853985 -0.00047214364 -0.00011245171
-0.0022180567 0.00025336255 0.00055562344 -0.00015236552 -0.00053043384 -0.0013920842 -0.0032922563 -0.0032552285
-0.0029151915 -0.0039272034 -0.006091476 -0.0040125214 -0.00089459866 -0.0016486667 -0.00095862395 -0.00014306218
-0.0046820887 -0.0029330845 -0.0018856259 -0.0008353865 -0.0033422932 -0.002976228 -0.0025955145 -0.0037870556
-0.0021126498 -0.0010641683 -0.0027795779 -0.00057088735 -0.0003845739 -3.3276046e-05 -0.00084627606 0.00014106666
-0.0024933927 -0.00074142363 -0.0031117136 -0.0048463778 -0.004577393 -0.0031189097 -0.002354883 -0.0045225085
-0.0010200612 -0.00035964453 -0.000284736 -0.0006654 -0.0020271905 -0.0016878438 -0.0016296156 -0.00070528156
-0.001496708 0.00011276646 -0.004500764 -0.003217617 -0.0053459858 -0.0042063007 -0.001339534 -0.0020037417
-0.00258629 -0.0015497607 -0.0008896771 -0.0006046031 -0.0025000428 -0.0019737263 -0.0019590429 -0.002551708
-4.372911e-05 0.00076649414 -1.7055827e-05 -5.109851e-05 -0.0014913048 -0.0012885426 -0.0009881697 -0.0010475515
-0.0022243462 -0.0019563565 -0.00067821983 -0.0005938156 -0.00021098235 -0.0005616689 -0.00026357253 3.2103428e-05
-0.00079919904 0.00013386828 0.00019102034 -0.00018894084 -4.8842307e-05 -0.00029979442 -0.00093537156 -0.00089529046
-0.00077578594 -0.0016302593 -0.0013295135 -0.00058110105 -0.00037072584 -0.0011157055 -0.0010027761 -0.00084969285
-0.0014277081 -0.0007291012 0.00019183198 0.0007336829 -7.9183075e-05 0.0006602736 -0.0006384974 -0.000821895
-0.000819714 -0.0010913868 -0.0011748706 -0.0009775292 -0.0010843908 -0.0030549373 -0.0026799957 -0.003294231
0.000902913 0.00037893612 0.0021571887 0.0021360598 0.0013009878 0.0011415194 1.7131077e-05 -0.0004539504
-0.0005860082 -0.0008935914 -0.000959851 -0.0012090184 -0.0016900493 -0.0014427196 -0.0012674769 -0.0022830418
0.0028639007 0.0026888468 0.0038952003 0.0041449885 0.0031612793 0.002099915 0.002541746 0.0008668627
0.00078169274 0.0006395661 4.1629166e-05 0.0002693842 -0.00046134263 0.00033051637 0.00128697 0.00015625457
0.0056162775 0.0064162645 0.031484168 0.091101885 0.1777684 0.20654897 0.22082892 0.19462954
0.16789038 0.1516117 0.13157366 0.10971395 0.06015261 0.005661722 0.0032290663 0.0019787962

0.projection.bias f4 [48]
00000000: 8471 88bf 222a 1ebe 1bbf babe e954 993e
00000010: 3c51 74bd b646 463f a407 e43e 4bf9 82bd
00000020: 20a5 b03d 0ad6 01be 1445 363f 1615 a4be
00000030: e694 bebd 3ea8 bd3d 520f e7bd 0bc8 1b3e
00000040: b1ef de3c abd4 4f3e 45dc afbd d298 383e
00000050: 3bf9 f4be dd5c a33e a852 87be e7c7 39be
00000060: a5a2 66bd f79d 22be e24a ef3c 790e 1fbe
00000070: 0e14 3a3e 442c 07be de3b 6b3e cfec 6abe
00000080: 810d 84bd cd68 cf3e f0dc 9fbd 152f ad3e
00000090: 0710 8d3e 54ee b0bd 6708 733d fd53 3d3b
000000a0: 7f46 aebe 6810 86bd e23b 063e 859a 8d3d
000000b0: 2b30 a63d f5d7 b73e 8e30 a0be 25cf 00bc
-1.0659642 -0.1544576 -0.36473927 0.29947594 -0.059647784 0.77451646 0.4453708 -0.06395205
0.08625245 -0.12679306 0.71199155 -0.32047337 -0.09305744 0.09260605 -0.11282219 0.15213029
0.027213903 0.2029597 -0.08586935 0.18027046 -0.47846398 0.31906787 -0.2643025 -0.18142663
-0.056307454 -0.15880571 0.029210512 -0.15532865 0.18171713 -0.1320048 0.22972056 -0.22941898
-0.06447888 0.40509644 -0.07805812 0.33824983 0.2755129 -0.086392075 0.059334185 0.0028889172
-0.3403816 -0.06546098 0.13108781 0.06914238 0.08114656 0.3590695 -0.31287044 -0.007861887

1.0.0.fn.0.weight f4 [48]
00000000: 04dc 99b7 cff8 feb5 74d1 9235 6cb7 7337
00000010: 600a 2a37 148f 2a38 07e0 0238 c5b3 9ab7
00000020: 4692 1f35 aa7f d4b9 d637 8fb7 4bb8 afb4
00000030: 9492 95b7 4eb3 56b7 4a7c e736 1108 8cb9
00000040: fcab a038 ed17 9b3a ca75 7039 ac57 9eb8
00000050: 0a85 f536 169e 52b7 144c acb3 085b 00b9
00000060: aa3b afb7 529d 8536 4673 17b7 0633 9c36
00000070: 70e9 af39 dce3 a535 1c6a 3437 5e67 3bb6
00000080: 81a5 8ab7 2b39 0d37 6103 a8b1 ef89 073a
00000090: 76a9 bab5 6087 efb3 7d2f d433 5aa8 88b3
000000a0: 59a5 0338 e12e f336 1b30 b93a 3efc beb7
000000b0: 1c93 f1b7 1013 3035 a0c3 1eba 12f1 99b7
-1.8341474e-05 -1.8996888e-06 1.0938807e-06 1.4526635e-05 1.0135205e-05 4.066441e-05 3.1203057e-05 -1.8441942e-05
5.944497e-07 -0.00040530908 -1.7072929e-05 -3.273038e-07 -1.783044e-05 -1.2797142e-05 6.8988056e-06 -0.0002670889
7.661429e-05 0.0011832692 0.00022932063 -7.550357e-05 7.3170568e-06 -1.2553783e-05 -8.023213e-08 -0.00012240943
-2.0889409e-05 3.9820234e-06 -9.027141e-06 4.655102e-06 0.00033552526 1.2359774e-06 1.0753542e-05 -2.792534e-06
-1.652795e-05 8.417565e-06 -4.8898277e-09 0.0005170395 -1.39074e-06 -1.1153929e-07 9.8806574e-08 -6.3636165e-08
3.1386826e-05 7.2474218e-06 0.0014128716 -2.2767224e-05 -2.8797942e-05 6.559285e-07 -0.0006056372 -1.8351278e-05

1.0.0.fn.0.bias f4 [48]
00000000: a25e ff3d 198a 9ab6 2e80 0a38 5e59 18b9
00000010: 4a08 2b37 af7a 0839 8ed4 83b7 1331 3ab6
00000020: fa12 0eb8 fb4c c1be 43e2 9a38 505e 05b7
00000030: faad f938 7054 6637 1190 57b8 6e23 78be
00000040: f608 ab39 0a4c 71be b67e c13e 5211 4f39
00000050: 8b7f d239 9087 c2b8 c523 6235 2c7c 8dbe
00000060: 6de0 953e f0a8 3339 fb19 a238 9c81 5cb8
00000070: d5d1 593e c28d 3fb7 1b2d 033e 7053 66b8
00000080: bec9 06b9 2bf2 3fb8 b834 1837 5d01 a8be
00000090: f969 343e b6d9 0634 ecd8 a0b3 3cb8 b1b3
000000a0: b7b8 8739 3ae2 3039 6bce bbbe 9908 93b8
000000b0: 6234 76b9 6d1a f7b8 31af 5cbe 9601 beb9
0.12469222 -4.6056343e-06 3.302114e-05 -0.00014529141 1.0194324e-05 0.00013015674 -1.5715395e-05 -2.7744725e-06
-3.387311e-05 -0.37754044 7.385437e-05 -7.949377e-06 0.00011905651 1.3728728e-05 -5.1394167e-05 -0.24232265
0.00032622338 -0.23564163 0.37791985 0.0001974751 0.00040149348 -9.275891e-05 8.424361e-07 -0.27633798
0.29272786 0.00017133704 7.729601e-05 -5.2572796e-05 0.21271451 -1.1417493e-05 0.12810175 -5.491398e-05
-0.0001285439 -4.5763485e-05 9.072181e-06 -0.3281354 0.1761855 1.2558925e-07 -7.4900385e-08 -8.275717e-08
0.0002588683 0.00016868944 -0.36680922 -7.011108e-05 -0.00023479902 -0.000117828 -0.21551205 -0.00036240806

1.0.0.fn.1.query.weight f4 [48, 48]
00000000: 1638 2a3a 0dd7 7936 c219 dab6 9b31 72b9
00000010: 20aa 7d37 b279 deb7 4158 01b9 27e2 6935
00000020: adff 9ab7 26ec 323a 41c3 79b8 e626 b436
00000030: 11d2 42b5 3894 6b3a 96ee e235 7c71 87b9
00000040: 3c92 b6b8 3120 39b8 589b 56b7 4d96 afb6
00000050: 656a a437 648a 0d38 148f a132 34b2 b436
00000060: c4dd 1a3c fedf 8137 f537 4db7 3333 7eb7
00000070: 32cd 7338 a7a8 a938 e837 fb38 7189 a037
00000080: a182 8336 fcd7 94b8 0b42 7b38 e22d b5b8
00000090: 5263 a9bb 50a7 0d38 ad05 f0b8 a2b5 d7b8
000000a0: 0a27 af3a 40eb c9b7 6e6c 1c39 2301 03b7
000000b0: 4a47 0d37 9f47 3738 1d8e 7439 89e2 cc36
000000c0: 78fb 203b b43f c83c f260 04ba b1e2 deb9
000000d0: 575d 9c38 0329 0c37 bd06 2439 f69a fd37
000000e0: 2a99 4e3d 7caa 5aba a83e e639 ff0d e737
000000f0: 01e7 2336 ca62 0c38 25f3 11bd f504 003b
00000100: 06c0 2d37 124e 633a 9f10 28ba bf52 5238
00000110: e6c3 1f3a 8a13 83b8 2703 b63b 3b09 113b
00000120: 322b 16bb 9dd3 9eb8 78ff d23d cb16 59b4
00000130: afbf 71bc 96c8 0fb6 7cd9 72b7 d7ce 0ab7
00000140: 8727 2db8 9b8c 77b8 781a e33c 63d6 6939
00000150: a67b 85b9 432d 81b9 de7e 1f3a d358 8bba
00000160: 3edd d634 63b4 b3b8 ac54 d53c 77a5 d037
00000170: 8322 a4b9 2468 9cb7 e3cd 19bd 0522 6c36
00000180: aee1 1db9 de01 59b8 6e95 7db7 74a1 573a
00000190: d875 4737 f0e9 8139 1e53 71b8 ca8c 71b9
000001a0: e432 3db8 a770 4ab8 1e10 b5b9 f899 33ba
000001b0: 9ed4 a039 d894 6b39 32b1 7bb9 fc3f 6b39
000001c0: 903b 7739 3556 6bb8 ab97 26b9 171f 54b9
000001d0: e095 d938 3fbd 803a 3cad 0838 0971 4ab8
000001e0: 44b3 8037 f0e6 9338 132a e239 1b66 8239
000001f0: fa75 f9b7 37e8 a239 8209 4bb8 a294 2439
00000200: 94ca a639 dfea a0b7 31e8 f4b9 a45d 9538
00000210: 6032 6db7 c4f6 5b34 4173 0339 987b c7b9
00000220: 0740 9237 c7e9 093a 872a c8b6 bbac 0139
00000230: 1b69 a1b8 bee8 04b9 25d3 f8b8 3462 afb8
00000240: 8e87 60b9 195e cbb6 4102 f1b7 2d9f 0fb9
00000250: fd68 bbb7 b477 6138 6ec0 81b5 ab89 a5b6
00000260: 361d aeb5 5d04 2839 5ca0 86b8 bc4b bb36
00000270: 4236 7137 2fa2 44b6 a06b 25b8 ac81 8639
00000280: 016e 3938 ec75 8539 7868 8db9 80b5 b2b7
00000290: 1513 8238 aa46 01b7 efcf 85b7 16c1 2a39
000002a0: dcfa d5b9 0672 52b8 34aa 7338 8ea1 80b6
000002b0: 2679 88b9 edfe 0ab7 ed15 21b9 36c9 2637
000002c0: ce3f 93b8 26b3 5837 e7ce 3bb8 0b14 bc39
000002d0: 1d0f 84b9 a483 2eb7 b167 08b8 1b8d 8037
000002e0: 6c19 95b2 84d5 48b8 3856 ab39 ee86 7334
000002f0: c4b0 a5b3 62d5 40b7 da67 aa37 e3fe af36
00000300: 7755 bfb8 7178 9db5 5c55 5238 8afb e132
00000310: 0bb3 8335 1120 bcb5 b5c3 dab6 04c3 f6b5
00000320: 798a 05b8 e7ff 3338 f420 2436 46c0 11b9
00000330: d4ce 3e34 215c 02b9 eb5a 5e33 9c2d 7538
00000340: 4977 48b4 97b6 c637 2401 52b8 0eb0 2635
00000350: bf64 e0b5 69ac b738 d22e 6534 cc13 0439
00000360: d6f7 9ab7 5a89 9db9 9abc acb6 8a38 8335
00000370: 7a2e 58b8 89bf 9a38 891f 24b7 dd39 9534
00000380: d7ee 45b5 217d 2037 a89e a835 851d 4a38
00000390: 44df 19b8 4851 c4b3 30f3 d2b4 073e ff34
000003a0: aede e8b6 54d2 2136 9f83 3d37 9c3d 9f37
000003b0: 73e4 a9b5 98c2 9135 834b 2839 08f4 d7b3
000003c0: 0f03 3338 f423 5cb6 99a7 1d38 dd71 e0b8
000003d0: 750f 1037 fda1 5ab8 3740 ee36 2f90 b5b7
000003e0: defa 58b8 5a12 b0b9 2f31 5839 84bc d1b8
000003f0: 970a d3b7 a4b6 7e39 0050 9136 91dd 24b9
0.0006493343 3.7229067e-06 -6.499905e-06 -0.00023097398 1.5119585e-05 -2.6521131e-05 -0.00012335276 8.712836e-07
-1.8477289e-05 0.000682535 -5.954807e-05 5.3689464e-06 -7.257632e-07 0.0008986625 1.690775e-06 -0.0002583376
-8.7056746e-05 -4.4137418e-05 -1.2791563e-05 -5.2329037e-06 1.9599867e-05 3.3745906e-05 1.8807931e-08 5.3851636e-06
0.009452287 1.5482303e-05 -1.2231981e-05 -1.51515005e-05 5.8126818e-05 8.089962e-05 0.00011979026 1.9137487e-05
3.9193114e-06 -7.09742e-05 5.990457e-05 -8.639299e-05 -0.0051693106 3.377284e-05 -0.00011445149 -0.00010285831
0.0013363075 -2.4070614e-05 0.00014917713 -7.808473e-06 8.420853e-06 4.3697302e-05 0.00023322595 6.106046e-06
0.002456395 0.024444439 -0.00050498464 -0.00042512038 7.4560456e-05 8.354199e-06 0.00015642769 3.023211e-05
0.050439037 -0.0008341444 0.000439157 2.7543863e-05 2.4423355e-06 3.3470606e-05 -0.03563227 0.0019534205
1.03563125e-05 0.0008670996 -0.0006411168 5.0144965e-05 0.000609456 -6.250206e-05 0.005554575 0.0022130746
-0.002291393 -7.573443e-05 0.10302633 -2.0217992e-07 -0.014755174 -2.1425417e-06 -1.4474961e-05 -8.2736e-06
-4.1283227e-05 -5.9020338e-05 0.027722582 0.00022300477 -0.00025459862 -0.0002463852 0.00060842733 -0.001063133
4.002158e-07 -8.568985e-05 0.026041351 2.4872583e-05 -0.0003130623 -1.8645143e-05 -0.037549865 3.5186542e-06
-0.00015056759 -5.173857e-05 -1.5114767e-05 0.00082256575 1.1888762e-05 0.00024779094 -5.7536286e-05 -0.00023035999
-4.5108507e-05 -4.826547e-05 -0.00034535018 -0.0006851251 0.0003067599 0.00022466795 -0.00024003236 0.00022435182
0.00023577944 -5.6108653e-05 -0.00015887494 -0.00020229477 0.00010375283 0.0009822025 3.2586264e-05 -4.8265825e-05
1.5342266e-05 7.052522e-05 0.00043137427 0.00024871607 -2.973805e-05 0.0003107206 -4.8407826e-05 0.00015695629
0.0003181292 -1.9182857e-05 -0.00046712303 7.1223156e-05 -1.413803e-05 2.0485737e-07 0.00012536069 -0.00038048322
1.7434371e-05 0.0005260971 -5.9654153e-06 0.00012366746 -7.696656e-05 -0.00012675204 -0.0001186489 -8.362942e-05
-0.00021412803 -6.060826e-06 -2.8730488e-05 -0.0001369684 -2.2341026e-05 5.3755663e-05 -9.667253e-07 -4.93341e-06
-1.2972512e-06 0.00016023354 -6.419487e-05 5.581851e-06 1.4377352e-05 -2.930068e-06 -3.94393e-05 0.00025655085
4.4209886e-05 0.00025455595 -0.0002697145 -2.1303771e-05 6.202437e-05 -7.705452e-06 -1.5951662e-05 0.00016284393
-0.0004081343 -5.0174094e-05 5.809423e-05 -3.8335047e-06 -0.00026030204 -8.2847955e-06 -0.00015362324 9.941219e-06
-7.021391e-05 1.29163145e-05 -4.4776967e-05 0.00035873087 -0.00025188262 -1.0401858e-05 -3.2521497e-05 1.5324496e-05
-1.7357443e-08 -4.7882568e-05 0.000326799 2.2680226e-07 -7.715565e-08 -1.1493774e-05 2.0313939e-05 5.245079e-06
-9.123509e-05 -1.1732465e-06 5.01474e-05 2.6307834e-08 9.812369e-07 -1.4016424e-06 -6.5196896e-06 -1.8385185e-06
-3.1838634e-05 4.2915253e-05 2.4457086e-06 -0.00013899905 1.7770373e-07 -0.00012432087 5.1771092e-08 5.845503e-05
-1.8669847e-07 2.3688464e-05 -5.0068964e-05 6.209601e-07 -1.6718622e-06 8.758234e-05 2.134432e-07 0.00012595876
-1.8473638e-05 -0.00030047708 -5.1479556e-06 9.776716e-07 -5.1541698e-05 7.3789684e-05 -9.782504e-06 2.7795514e-07
-7.3735777e-07 9.565877e-06 1.256315e-06 4.8188045e-05 -3.6685975e-05 -9.141746e-08 -3.929249e-07 4.7542582e-07
-6.940062e-06 2.4113297e-06 1.1295923e-05 1.8982966e-05 -1.2657969e-06 1.0859976e-06 0.00016049859 -1.0056107e-07
4.2679774e-05 -3.2803482e-06 3.7587804e-05 -0.00010702361 8.586668e-06 -5.2126114e-05 7.1004283e-06 -2.1644022e-05
-5.173205e-05 -0.0003358301 0.00020617688 -0.000100010104 -2.5158091e-05 0.00024291367 4.33065e-06 -0.00015722799

1.0.0.fn.1.query.bias f4 [48]
00000000: f4c1 edba 3b4c db3b ea71 3138 57cf 6dba
00000010: a204 7338 b9d5 d339 8180 80b9 4ba8 44b8
00000020: 1f11 b9b8 9993 6fb7 dbe2 5b3a 6c14 a939
00000030: b9d1 e138 e899 86b9 38e5 82b8 6a81 b938
00000040: f35c 8b38 0ab6 21ba 695d 24b9 4d17 4837
00000050: e9f8 0dba cd48 58b9 1f9a 00b9 986d 21ba
00000060: 5f1f 34b9 efe6 9ab9 e453 1e37 6d01 3039
00000070: 9e68 0a3b 7402 6e3b b317 cb3b 4aca 6639
00000080: c08b 07bc 26e0 88b9 7261 86ba 51ad 2fba
00000090: 0453 d8b9 43c9 a93a 97ec a3b8 e2de 8739
000000a0: 219f 8f3c e660 88ba 68a6 f8b9 f128 443c
000000b0: 0f7b 98b9 2fd9 db3b 1348 e339 40ef 183a
-0.0018139468 0.006692437 4.230618e-05 -0.00090717286 5.794003e-05 0.00040404292 -0.00024509805 -4.6886777e-05
-8.8246765e-05 -1.4279875e-05 0.0008387991 0.00032249407 0.000107679 -0.0002567314 -6.2415784e-05 8.845593e-05
6.64535e-05 -0.00061687885 -0.00015675057 1.1926354e-05 -0.00054158136 -0.00020626486 -0.00012264446 -0.00061579933
-0.00017177824 -0.00029545228 9.437066e-06 0.00016785199 0.0021119486 0.003631738 0.0061978935 0.00022009868
-0.008273065 -0.00026106945 -0.001025243 -0.00067015464 -0.00041260582 0.0012953657 -7.816514e-05 0.00025915267
0.017531933 -0.0010404855 -0.00047426228 0.011972652 -0.00029083385 0.00670924 0.00043350513 0.0005833991

1.0.0.fn.1.key.weight f4 [48, 48]
00000000: ddb0 cf39 91b1 fdb5 06e8 e836 1c5a 8eb7
00000010: 30a1 2137 f4cc 91b7 b06c 7938 6422 aa34
00000020: af3b 5536 3f8d 09ba 88b5 0139 1dd4 1635
00000030: 63db 43b5 6b94 ad3a 188d e3b7 6749 9ab9
00000040: eaa8 a734 90ef c33a 2431 fab9 15c0 8435
00000050: 85bf c6b4 eb7d e2b5 435c 9a30 9ff8 1539
00000060: b8da 79b9 4c7a 3635 588e 1ab9 8aec 70b9
00000070: d9b8 38b9 1f30 55b4 3bb4 afb6 5d71 6b33
00000080: 986a 0cb7 252b 2538 55c5 7337 102d f437
00000090: 8ffd cbb8 cb93 1f35 47b0 1ab8 900f 2bb8
000000a0: 234a 0836 7612 23b8 9bad f7b8 9872 29b4
000000b0: 7be4 7736 226e 6436 07ec 103b 9f36 04b4
000000c0: bd4f fa39 307e abb7 e1b8 84b7 25ed 8e38
000000d0: cc3b 2638 121e aaba de63 9c39 3608 cab8
000000e0: 6abd ca35 b375 7bb8 4fc0 01bb ee13 49b8
000000f0: 8826 7c39 3117 91b9 a926 76b8 57c5 d839
00000100: 4b25 db38 b48a 4739 b01e 4539 5331 3539
00000110: d0f3 8d38 a06a f036 6d72 39b8 e61a 05b9
00000120: 05c0 89b9 42d0 a2b8 8b2f f338 5b7b 91b7
00000130: 3147 7f39 81fc 5638 6479 ebb8 df36 9a38
00000140: 658d 8b38 c11c 7bb9 1bbe 0db8 7d73 96b9
00000150: 5a67 0437 2a04 1036 157e a138 d551 0ab9
00000160: e290 b9b5 76f7 feb6 be37 d0b9 4e1e 5c36
00000170: c835 8138 1a4e c138 cf2e 8eb9 230e 0f39
00000180: 93bb aa39 5de5 c6bc 40c9 cfb6 43d8 b238
00000190: 711d d8bc 3f68 aab9 03ba 3bbc c573 893c
000001a0: a45b e937 90e4 55ba e92f 683d 1a48 da3a
000001b0: 3d08 563d b1a3 ecba 5b85 9fba c57d 1938
000001c0: b283 8fba 8df1 d43b f999 0f3d 40cb bb3b
000001d0: 829d b6b8 74d1 133d e98c 1c3c 1c22 25bd
000001e0: 941f 4dbd b550 1b3d 9cd6 66bd 3c74 ed36
000001f0: c499 883c aae6 8c37 5b09 833b 5b7c 90b9
00000200: 8123 eb3c 985e 2ebd d8b5 bc3a 32af 6e3b
00000210: 83f2 2a3d 0ff8 1bbd 0c63 b238 ad33 3338
00000220: 246f 56bb 9fc7 c7b6 8051 383d b993 d63b
00000230: 5dc9 22b8 a63a 83b8 aa73 cabc 447e 8e3d
00000240: 3b96 62b8 b8ca b5bd 87a3 45b8 1283 7f35
00000250: 5daf 51b7 98e0 123a af49 573c f56e 58b6
00000260: 1bd8 37b8 bd07 93bc a5f5 12b9 4dcb 81ba
00000270: b916 2c36 a21e 9639 8a5d 1fb7 bd03 9b39
00000280: 3eaa 113d aa4d 2a3a 6603 5e3a 269a 813c
00000290: abab b6b7 a91f 02bc 5bb1 8a36 b5b2 53bc
000002a0: 7548 58b9 af0f f039 0974 3ab9 2b03 d43c
000002b0: 205c d2b9 60aa 3fbc 5f7c 593b 0dbd 23bc
000002c0: 20ca 44bc 6abc 6938 7368 1135 d1bc c13a
000002d0: 60e0 d5b8 16ec bbb4 b720 9b3c 2156 6a39
000002e0: 76a3 f1b5 1dee d5b6 5c3b 1db6 bc53 88b7
000002f0: 7a8a 9cb8 3198 4ab6 3d0e 233b aae1 f63c
00000300: 5592 eab7 02c3 a438 578c 8bb9 9e10 9536
00000310: 7488 38b6 05a0 3b3a df0e 3b39 a06a 85bc
00000320: 3cc4 cf38 a5e3 81b8 1dcb 753c 4df9 f5b5
00000330: fca1 9037 dcaf d1b7 c4da c03b a19f 72b8
00000340: ad45 0838 6ca6 b2b7 8e9e 30b9 a194 1ab6
00000350: e682 ae38 eb55 beb5 fb15 7035 4a5d 55b8
00000360: 1815 093c c96b 3937 1b1c 4eb9 c2aa 8237
00000370: 79eb 01b6 e81a 4bb8 8a35 7538 b740 01b6
00000380: 3a30 3137 e249 f2b2 710a a436 6c26 60b8
00000390: d6c7 26bc 1202 a535 daec 263a a3f0 b739
000003a0: 7d4b 69b6 2d69 14b6 ad5e 19b8 cce4 b3b8
000003b0: 8a81 47b7 b434 90b7 ed81 123a aa89 7936
000003c0: bd22 62ba aa9b 893a 96cf b5b7 4ca6 b6ba
000003d0: 2564 f0b5 3be6 b239 3c5b 5abc 599a afba
000003e0: ab0f 723a 367d 023a 7979 82bc 9e8e 19bb
000003f0: 52bc 4836 7b9e 0fba dcf4 983c 4643 0aba
0.0003961389 -1.8901648e-06 6.94115e-06 -1.696968e-05 9.633877e-06 -1.7380786e-05 5.946745e-05 3.168999e-07
3.1774214e-06 -0.00052471826 0.00012370024 5.618802e-07 -7.296241e-07 0.0013243085 -2.712621e-05 -0.00029427858
3.1229075e-07 0.0014948715 -0.00047720328 9.89067e-07 -3.7019723e-07 -1.6874959e-06 1.1231197e-09 0.00014302366
-0.0002382797 6.797825e-07 -0.00014739612 -0.00022976301 -0.00017616469 -1.9854677e-07 -5.236388e-06 5.4818305e-08
-8.369469e-06 3.9379247e-05 1.4529874e-05 2.910805e-05 -9.727023e-05 5.944718e-07 -3.6880632e-05 -4.078407e-05
2.0308732e-06 -3.887942e-05 -0.00011810214 -1.578104e-07 3.6938861e-06 3.4038753e-06 0.002211334 -1.2313329e-07
0.00047743125 -2.044355e-05 -1.5821717e-05 6.815259e-05 3.9633174e-05 -0.0012978932 0.00029829046 -9.63364e-05
1.51053e-06 -5.995268e-05 -0.0019798463 -4.7940695e-05 0.00024046947 -0.00027673834 -5.8686976e-05 0.0004134576
0.0001044968 0.0001902979 0.00018798816 0.0001727988 6.7688175e-05 7.16497e-06 -4.4214004e-05 -0.00012693889
-0.00026273742 -7.763553e-05 0.000115959985 -1.7342789e-05 0.00024345216 5.125674e-05 -0.00011228284 7.353513e-05
6.654373e-05 -0.00023947937 -3.379407e-05 -0.00028696275 7.8918765e-06 2.1460096e-06 7.700563e-05 -0.0001319119
-1.382574e-06 -7.598598e-06 -0.00039714383 3.2800194e-06 6.161217e-05 9.217505e-05 -0.00027119226 0.00013642809
0.0003256468 -0.02427929 -6.1925093e-06 8.527983e-05 -0.026381226 -0.00032502596 -0.011457923 0.016778836
2.7818438e-05 -0.00081593636 0.056686316 0.0016653568 0.05225395 -0.0018054155 -0.001217048 3.6595175e-05
-0.0010949282 0.0064985217 0.03505895 0.0057310164 -8.7077744e-05 0.036088422 0.00955508 -0.040315732
-0.050078943 0.037918765 -0.05635701 7.076682e-06 0.016674884 1.6796712e-05 0.003998918 -0.00027558472
0.028703453 -0.04257068 0.0014397455 0.0036420343 0.041735183 -0.038078364 8.50615e-05 4.2725052e-05
-0.0032720054 -5.953901e-06 0.0449996 0.0065483716 -3.8811344e-05 -6.257491e-05 -0.024713356 0.06957677
-5.4022512e-05 -0.08876556 -4.7120757e-05 9.5185635e-07 -1.2498201e-05 0.0005602925 0.013140126 -3.2251094e-06
-4.3831864e-05 -0.017948026 -0.00014015155 -0.0009902507 2.5643224e-06 0.00028633053 -9.498917e-06 0.0002956669
0.035562746 0.0006496558 0.00084691343 0.015820574 -2.177603e-05 -0.007942119 4.1333674e-06 -0.012921025
-0.00020626358 0.00045788052 -0.00017781569 0.025880417 -0.0004012296 -0.011698335 0.0033185703 -0.009993804
-0.012011081 5.5727003e-05 5.4168703e-07 0.0014781003 -0.000101984246 -3.500324e-07 0.018936498 0.00022348065
-1.8003473e-06 -6.3756147e-06 -2.3429375e-06 -1.6251455e-05 -7.464453e-05 -3.0188933e-06 0.0024880313 0.030136902
-2.7963115e-05 7.8564524e-05 -0.00026616707 4.4424805e-06 -2.7497563e-06 0.00071573287 0.0001783925 -0.016286194
9.907081e-05 -6.1936014e-05 0.015002039 -1.8326479e-06 1.7241568e-05 -2.4996632e-05 0.005885454 -5.7845962e-05
3.2489817e-05 -2.129675e-05 -0.00016843734 -2.3034302e-06 8.321348e-05 -1.4181109e-06 8.9438953e-07 -5.087004e-05
0.008366846 1.1051955e-05 -0.00019656161 1.5576723e-05 -1.935956e-06 -4.842403e-05 5.8462414e-05 -1.9260167e-06
1.0561251e-05 -2.8206106e-08 4.8887964e-06 -5.3441545e-05 -0.010179481 1.229406e-06 0.0006367691 0.00035083768
-3.4763646e-06 -2.211494e-06 -3.6566216e-05 -8.578002e-05 -1.1891485e-05 -1.719068e-05 0.00055888185 3.7184022e-06
-0.0008626392 0.0010498662 -2.1673546e-05 -0.0013935058 -1.7910539e-06 0.0003412234 -0.013327416 -0.001339744
0.0009233902 0.00049777643 -0.015927063 -0.0023430954 2.991194e-06 -0.00054786325 0.018671446 -0.0005274307

1.0.0.fn.1.key.bias f4 [48]
00000000: 323f 443a 263c 9139 540d f8bb 5b17 2ebc
00000010: 5289 bab9 60c2 c83a 6845 903c bb50 d33a
00000020: e4ce 443c 15fa aa3c 961d 92bc 4128 0039
00000030: efeb 293a 1561 6d3b 31ec 84ba 79ca 49bc
00000040: 0e33 20bc 9eef e53a f11b 7db8 a0a5 353c
00000050: 36ff 1e3b a547 da39 4bb1 98bb 6515 13bc
00000060: e15f 053d e417 823c 9ffd da3c 2e23 03bc
00000070: 4c34 bc39 1922 403a 3b39 9fb9 5b52 3f39
00000080: bf9d 473a cb6d 7dbc 5ef8 cd3b 0d72 b43a
00000090: 7d83 68ba 159b d4bb 43d2 adbc 63d7 d53c
000000a0: 0198 9538 e307 e8ba 11bb 33b8 cce4 b4ba
000000b0: 2b80 23ba 3e79 ea3a 74a7 06b8 502c b6bc
0.00074862235 0.0002770137 -0.007569948 -0.010625686 -0.00035578996 0.0015316717 0.01761122 0.0016122082
0.012012217 0.020871202 -0.017836373 0.00012222027 0.0006481995 0.0036221195 -0.0010141191 -0.01231634
-0.009777797 0.0017542725 -6.0345923e-05 0.011086851 0.0024261004 0.0004163358 -0.004659807 -0.008977269
0.03256214 0.015880533 0.026732264 -0.008003993 0.00035897119 0.00073292997 -0.00030369483 0.00018245859
0.00076147536 -0.015468071 0.006285711 0.00137669 -0.0008869691 -0.006488214 -0.021218425 0.026103681
7.1331866e-05 -0.0017702546 -4.2851145e-05 -0.0013801097 -0.0006237055 0.0017888916 -3.2104042e-05 -0.022237927

1.0.0.fn.1.value.weight f4 [48, 48]
00000000: cc0f e53d 7ce3 c338 2ade cb37 8d70 0cb8
00000010: a8eb 3337 0f05 9039 352b 9137 a2fb b0b7
00000020: 8db0 b9b7 063c 8cbe 12c0 0b39 f91e a0b6
00000030: cbd1 a6b9 b7d6 2638 71a6 71b8 792c 39be
00000040: 44ef 2d3a 77b9 5fbe 59d1 823e ffc2 4539
00000050: eb69 023a 419b 54b9 f904 48b5 ea4a 81be
00000060: 2835 903e 1b9c e738 2e36 d238 b676 acb7
00000070: 2657 493e 80b4 65b6 9997 133e 17d5 f5b7
00000080: 79ed a8b9 5fc5 9e38 9ec2 9b37 bdd0 8abe
00000090: c1d3 463e 33b8 4435 4190 e9b4 a06e e532
000000a0: 6736 e639 2735 8039 8b4c 94be c911 04b7
000000b0: 1510 3eba 6dc2 8eb9 2f39 55be 4dc9 47b9
000000c0: 1ff6 663d 7922 2d38 86d0 ab37 cb77 7bb7
000000d0: 5b47 8037 c7a9 3c39 7b23 2eb7 a46c f9b6
000000e0: 00c3 cfb7 7a7b 6cbe faaa 3f39 3bd1 a9b6
000000f0: 5f7d 52b9 0f63 b637 f28e 27b8 e2b0 01be
00000100: 437f 013a d953 2abe 7a24 553e ce47 1239
00000110: 6e2a bf39 7f86 07b9 6a4c 6cb5 b941 50be
00000120: 1ba2 6d3e 6337 0a39 a739 9b38 cd67 3ab8
00000130: ccbf 123e a26d f336 a18b ab3d 0dfa c2b7
00000140: cf97 9db9 5d66 5e38 be37 6337 fe20 68be
00000150: 8e07 0d3e 9125 2335 0971 05b4 8fd2 46b2
00000160: 995e 9039 53a4 2a39 deeb 7bbe 94a9 a035
00000170: 8d30 25ba d34b fdb8 30cc 1cbe 2ddc 19b9
00000180: 7649 d3bd 15ef 7934 cba4 94b7 9a3f 9bb9
00000190: d45a a3b7 e239 c4b8 b6d5 ab37 85d8 8235
000001a0: 608f 8038 1f4f 7a3e e149 ebb8 b95f c036
000001b0: 9f14 c8b6 e9f5 32b7 9855 b9b8 616e 293e
000001c0: 71dc 4cb9 cb57 493e 5c4a 6bbe 54c4 d337
000001d0: eef3 57b9 9498 7238 5736 cf34 ff09 653e
000001e0: 6402 7bbe a91b 1cb9 7c3e 5fb8 3069 6338
000001f0: e512 37be 1545 09b7 ce1a 01be 9835 ed37
00000200: e189 2739 1d22 e836 7296 66b7 b0db 753e
00000210: 7af7 2dbe 533c 76b5 4552 50b4 0152 0333
00000220: 3e88 2eb9 d9a8 b8b8 b7d7 803e 0669 a837
00000230: 996d 8d39 abbb 5f38 f998 3f3e ad3a a7b9
00000240: 9b5c a93d 0939 8538 931c c037 7025 5e37
00000250: e439 4837 a391 7d39 8c73 e735 a2d8 99b7
00000260: 59a5 1fb7 2573 85be 5bbb 3b39 3785 a3b6
00000270: eceb 72b9 5b24 7037 1f62 45b8 aacb 1dbe
00000280: 9584 2b3a 6a4d 48be c347 733e e533 2239
00000290: c175 ff39 814d 3eb9 96c2 44b5 bf0c 6fbe
000002a0: 1d5e 873e 8e9d 0139 0418 b538 e65e 1bb8
000002b0: 106b 2f3e 11c2 9db6 4eec e53d 3422 aab7
000002c0: f399 bdb9 709a ab38 5d1e 8e37 5618 83be
000002d0: a86d 2b3e 81a1 e834 b3b3 9bb4 9369 4c32
000002e0: 9203 c239 dcf6 6a39 941c 8fbe d646 4b37
000002f0: 2cf3 47ba 1174 4eb9 ae27 3bbe 450a 2cb9
00000300: d9bb 93bd 0270 34b7 c389 bfb7 1e51 7037
00000310: b1c3 b3b7 e7c1 27b9 32d6 6db7 153e 8e37
00000320: 34af 7638 3f2c 5f3e 0ab2 55b9 1f68 9c36
00000330: 3b96 9d38 5700 e7b7 dd80 4838 30f5 0a3e
00000340: f08f dcb9 555b 2d3e 53b4 4fbe fc24 26b9
00000350: 18e6 a2b9 f707 d838 2bb2 8f35 465f 4a3e
00000360: 8c78 60be 120d 0fb9 88da b7b8 2f5a 6738
00000370: a1c2 19be 1883 beb7 ff72 c4bd c062 6f37
00000380: 1739 8639 0988 d9b7 4451 98b7 cc7b 5b3e
00000390: 4988 10be 8e10 46b5 4d3c 9bb4 446b c2b2
000003a0: df51 80b9 cdad 1eb9 a5c9 663e 6ceb d937
000003b0: b0c1 dc39 0778 b338 e0e1 223e f36e 3039
000003c0: a246 1c3b 4016 4cbb 8c7e a138 e574 dbb9
000003d0: 0810 03b7 88c8 263b 6e85 6739 7b87 a4b9
000003e0: 4279 e739 50d0 2fbb 49ce 433b 71ab d736
000003f0: b28e 13bc b6b7 9c39 16be c8b9 38c9 09bb
0.11184654 9.340697e-05 2.4302939e-05 -3.3483422e-05 1.0724099e-05 0.0002746959 1.7305467e-05 -2.109801e-05
-2.2135931e-05 -0.27389544 0.00013327625 -4.7719773e-06 -0.00031818295 3.9777453e-05 -5.761389e-05 -0.18083371
0.00066350796 -0.21848093 0.25550345 0.00018860026 0.00049748895 -0.00020275732 -7.451304e-07 -0.25252467
0.28165555 0.00011044015 0.00010023672 -2.0559277e-05 0.1966215 -3.4228724e-06 0.14413299 -2.9305504e-05
-0.00032220388 7.57079e-05 1.8568066e-05 -0.2711238 0.19416715 7.3283735e-07 -4.350459e-07 2.6709415e-08
0.00043909551 0.00024453664 -0.28964648 -7.871954e-06 -0.0007250321 -0.0002722921 -0.20822595 -0.0001905311
0.056387063 4.127852e-05 2.048189e-05 -1.4988657e-05 1.5292017e-05 0.00017992324 -1.0379469e-05 -7.4334257e-06
-2.4767127e-05 -0.23093978 0.00018278873 -5.06095e-06 -0.00020073865 2.1742218e-05 -3.994903e-05 -0.12665132
0.0004939923 -0.16633548 0.20814696 0.00013950394 0.00036461971 -0.00012924707 -8.802805e-07 -0.20337571
0.2320637 0.00013181339 7.4017145e-05 -4.4442528e-05 0.14330977 7.2547273e-06 0.083762415 -2.3243041e-05
-0.0003005848 5.3024258e-05 1.3543233e-05 -0.22668836 0.13772413 6.07769e-07 -1.2427712e-07 -1.1572992e-08
0.000275363 0.00016273679 -0.24601695 1.1970283e-06 -0.0006301485 -0.000120781035 -0.15312266 -0.00014673239
-0.10316746 2.327691e-07 -1.7719713e-05 -0.0002961129 -1.947341e-05 -9.35679e-05 2.0484305e-05 9.74877e-07
6.130221e-05 0.24444245 -0.00011219434 5.7331895e-06 -5.962865e-06 -1.0666882e-05 -8.8374305e-05 0.16546012
-0.00019537077 0.19662397 -0.22977585 2.5244583e-05 -0.00020594869 5.7839396e-05 3.8596292e-07 0.22367094
-0.2451263 -0.00014887624 -5.3225536e-05 5.421898e-05 -0.17878301 -8.181921e-06 -0.12607881 2.8277558e-05
0.00015977725 6.91811e-06 -1.3744097e-05 0.24009585 -0.16988936 -9.1729925e-07 -1.9401439e-07 3.0575396e-08
-0.00016644687 -8.805254e-05 0.25164577 2.0076066e-05 0.00026975272 5.3342123e-05 0.18710698 -0.0003189644
0.08269616 6.352558e-05 2.290149e-05 1.3240948e-05 1.1934408e-05 0.00024182214 1.724447e-06 -1.8339899e-05
-9.5156365e-06 -0.2606441 0.00017903505 -4.873287e-06 -0.00023166806 1.4313579e-05 -4.7059842e-05 -0.15409723
0.00065428886 -0.19560781 0.23757844 0.00015468856 0.00048725124 -0.00018148684 -7.329885e-07 -0.23344706
0.2643899 0.00012361092 8.635226e-05 -3.704326e-05 0.17130685 -4.701557e-06 0.11226712 -2.0281506e-05
-0.0003616359 8.1826816e-05 1.6941858e-05 -0.25604504 0.1674105 4.3330877e-07 -2.9001748e-07 1.1898368e-08
0.00037005224 0.00022407941 -0.2795149 1.2116236e-05 -0.0007627483 -0.00019688929 -0.18276855 -0.00016407024
-0.072135635 -1.0754915e-05 -2.2833125e-05 1.4324001e-05 -2.1429589e-05 -0.00015998595 -1.4176172e-05 1.6956628e-05
5.881414e-05 0.21794222 -0.00020379588 4.6612836e-06 7.514326e-05 -2.7537504e-05 4.780373e-05 0.13570094
-0.00042068912 0.16929372 -0.20283632 -0.00015844771 -0.0003107048 0.00010301166 1.0706184e-06 0.19762906
-0.21920985 -0.00013642412 -8.7668246e-05 5.515868e-05 -0.15015651 -2.271081e-05 -0.09592246 1.4268502e-05
0.00025601007 -2.5931762e-05 -1.8157654e-05 0.21433944 -0.14114489 -7.378484e-07 -2.8914874e-07 -2.2633351e-08
-0.0002447506 -0.000151328 0.22537859 2.5978043e-05 0.00042105978 8.557742e-05 0.15906477 0.00016826
0.0023845811 -0.0031141192 7.7006494e-05 -0.00041858028 -7.811941e-06 0.0025449116 0.00022079583 -0.00031381458
0.00044150098 -0.0026827045 0.0029877594 6.4274577e-06 -0.009006189 0.00029891514 -0.00038288598 -0.0021024477

1.0.0.fn.1.value.bias f4 [48]
00000000: 5c57 473f 5c82 023f 2ec7 25bf 5efb 173f
00000010: 99dd 07bf 9762 1d3b 030a 3e3b 5d8f f6be
00000020: f2dc 43bf 5378 303f 18b3 ea3a 51f6 4e3a
00000030: 9cfb 06bb fada 3e3f 6593 0d3f 9cd2 d43e
00000040: 4898 4d3f 60e8 fdbe d294 4d3f 4617 55bb
00000050: 51e3 dfb8 71f7 1e3f 1a52 253f e192 263f
00000060: b7b6 413f 8c18 04bf 3fad 013f 31f9 ecbe
00000070: 2467 fd39 ce5f 50bf 8511 303f 4c9f 013f
00000080: 97fb 3f3f 4b44 f63e 9070 09bb 5782 053f
00000090: cd20 a43c 1c54 2b3f de08 f23e 9d3f 653f
000000a0: 81e0 97be 3d72 9bbe 6009 5abb a220 d83e
000000b0: e0c2 d53e f635 3b3f 1d90 21bf bcec 3a3f
0.77867675 0.5098016 -0.6475705 0.5936793 -0.53072506 0.0024015063 0.0028997667 -0.48156253
-0.7650901 0.689336 0.0017906157 0.00078949804 -0.0020596748 0.7455288 0.5530303 0.41566932
0.8031049 -0.4959135 0.80305207 -0.0032515093 -0.000106758096 0.62096316 0.645784 0.6506787
0.75669426 -0.51599956 0.5065498 -0.46283868 0.00048332766 -0.81396186 0.6877673 0.5063369
0.7499327 0.48098978 -0.0020971633 0.5215201 0.020035172 0.66925216 0.4727239 0.8955019
-0.2966347 -0.30360594 -0.0033269748 0.42212397 0.4175024 0.7312921 -0.63110524 0.7301748

1.0.0.fn.1.out.weight f4 [48, 48]
00000000: 1d50 8ebf bf09 5bbf e9fe 753f 17ae 76bf
00000010: da22 703f 18ae 4d3a aef0 f739 422a 6e3f
00000020: 7445 783f 106e 7cbf 474d 833c 25fb ae39
00000030: 0292 c6ba 74c0 83bf 9fd7 6dbf 3ece 6cbf
00000040: 9074 76bf bda1 6f3f 087e 8bbf 7627 89bc
00000050: 8dcd b1ba 29ce 69bf 5375 77bf 9e59 7ebf
00000060: 9796 85bf 2764 773f ba82 63bf a57f 523f
00000070: b8c8 203a b3b8 8d3f 7350 7fbf d681 63bf
00000080: 51ad 75bf d462 4dbf 619d 7abc c2ae 7abf
00000090: 08fd 41bd b122 84bf 0795 51bf b515 85bf
000000a0: ed2b 503f 3a9f 393f bfff b5bb 66fc 52bf
000000b0: b932 57bf 8f5d 8bbf 33ef 5b3f aa43 63bf
000000c0: 61ce 4cbd 5590 883a cadf 563b d0a4 513a
000000d0: ea4b 2c3a c1b5 4abb 0393 c4bb 1819 143b
000000e0: 5efd 6d3b 10cf 4837 24f7 4ebb afd4 d7bb
000000f0: de0f d03b 7624 1e38 84d6 873a 2ccb 86bb
00000100: 1bbf 00bc e2d2 843d 381c d5ba f02c e63b
00000110: a7fe a1bb 9028 b839 5181 9fba f749 b93c
00000120: 5758 c2bd ef98 7f3b 318b d9bc b64d 3b39
00000130: 2807 87bb deac 9eb7 2722 73bb 644a 80bd
00000140: bfd0 9bbb d92b 7939 f67e 8a3b 9f5d 2ebb
00000150: 3c2a 0d3c 8226 7bbd f4f7 c63a 5686 443a
00000160: 292f 033b d7a4 043b eaaa f53b 5037 f939
00000170: 453d c039 5a84 1eb9 9b12 6fbd 3a71 0d3c
00000180: b33d 5dbd ec5d 79bc 7eaa 41bd 4dd1 0fbd
00000190: daed 11bd b441 ae3c 2056 703c a79c 3ebd
000001a0: 9c85 4ebd 88c4 063c a2ab e7bc 8ac0 5fbb
000001b0: c0b1 9fbc 28f3 8b3c 96fc cdbc d4dc 513d
000001c0: 4388 8bbd afe4 4dbd f8f8 3a3c bb6d 113d
000001d0: 7e5f 06bb 24e5 78bd f113 243d cabf acbd
000001e0: 048e 91bd 5d85 55bd 9bd2 0ebd 870e 933d
000001f0: 97dd 973b 7563 753b 2e0a 523d fc3b 3c3d
00000200: 87f1 77bd c643 c6bd b08a 15bd 8964 373d
00000210: 0e35 9d3b d0a8 2f3c fb7d d7bc 1ea3 cdbd
00000220: 89c3 38bd 2760 bb3d abd6 5a3c 2c35 a4bc
00000230: 742c 613c 0364 543b 2136 273d e208 4fbd
00000240: c65d 2a3d 26b9 b43c 9780 23bc 32c5 053d
00000250: 3ac6 4cbc 8472 8dbc 2caf 96bc 1ef2 46bc
00000260: c80f f9bb 20a1 7c3c 0877 4fbb 6542 203a
00000270: ce5e 5b3b e600 303c 13a3 d23c 66e3 6a3c
00000280: 4374 353d ed1f 16bc 4af1 2c3c 5cf6 a43b
00000290: 2f3a fbb7 a56c 473d ecb1 3a3c fa35 433d
000002a0: fe97 3f3d 3d2d 33bc ba44 d33c a080 fabc
000002b0: 1e1b 3e3b d57e 78bc ec7a 083c 174a 293c
000002c0: aea5 333d 07d0 f63c ef62 1cbc 985b 553c
000002d0: 528e 153c 5fb6 3f3c ed58 d93c 7642 403d
000002e0: b10d 9fbc 03a7 efbc 172d 41bb 229c ab3c
000002f0: 5cd8 9b3c 27b7 853c aa40 15bd 8a4c 193d
00000300: fb32 ab3c d006 08bb 3ef9 7f3a 8cb5 c73a
00000310: 03c3 903a 5111 283c 05a2 b83b b96d 3b38
00000320: 0542 35b9 3ed3 caba 3dc8 20bd 1986 cbbb
00000330: 1436 e03b e512 03bb e804 f938 4e5a 2d3b
00000340: a55c 303d a7ad 63bb df5a 57bb 0fb9 143d
00000350: ab08 17bc ad26 463d 7ee6 26ba 8aac b63b
00000360: 12b2 173d cb63 37ba c376 143b c6df 96bd
00000370: 7252 a2bb 23cc 4c3a ca58 b738 68af 463a
00000380: eff9 bb3d 39f4 353e bb63 c93c 3c18 05bb
00000390: 1d63 303c 1658 8a3a da92 d1ba 1a9b db3d
000003a0: 95be 593a b3df 29be ad82 a23c 302e 8dbc
000003b0: 5f1d 33bb 6621 913d 5199 12be a3c2 413e
000003c0: 960d 663f f7ea 363f d755 47bf 2c3b 4e3f
000003d0: 1306 1dbf 7c08 ef3b 6d43 d73b eace 0fbf
000003e0: 5550 37bf f245 543f bcc2 c23b f63d 0a3c
000003f0: 0674 1f3c fe01 433f d0c9 4b3f 67ab be3e
-1.1118199 -0.85561746 0.9609209 -0.9635939 0.9380318 0.00078460714 0.00047290832 0.9303323
0.9698098 -0.9860544 0.01602806 0.00033374983 -0.0015149715 -1.0293107 -0.92907137 -0.925022
-0.9627161 0.9360617 -1.0897837 -0.01674245 -0.0013565287 -0.913302 -0.966634 -0.99355495
-1.0436581 0.96637195 -0.8887135 0.8222602 0.0006133425 1.1071991 -0.9973213 -0.8886999
-0.95967585 -0.80228925 -0.015296311 -0.9792291 -0.04736045 -1.0323087 -0.8186802 -1.039725
0.81317025 0.72508585 -0.005554169 -0.8241638 -0.8406177 -1.0887927 0.85911864 -0.8877512
-0.050001506 0.0010418991 0.0032787197 0.0007997276 0.00065725914 -0.0030931088 -0.0059989705 0.0022597965
0.0036314349 1.1969139e-05 -0.0031580413 -0.006586633 0.0063495478 3.7704092e-05 0.0010363613 -0.0041135754
-0.007858063 0.06485535 -0.001625902 0.0070244 -0.004943687 0.00035125436 -0.0012169277 0.022618277
-0.09489506 0.0039001068 -0.02655563 0.0001786266 -0.004120726 -1.8915565e-05 -0.0037099214 -0.06264189
-0.004755109 0.00023762825 0.0042265607 -0.0026606095 0.0086160265 -0.06131602 0.0015180097 0.0007496824
0.0020017123 0.0020239854 0.007497181 0.00047534192 0.00036666743 -0.00015117359 -0.058367353 0.008632952
-0.05401392 -0.015220147 -0.047281735 -0.035111714 -0.035627224 0.021271564 0.014668971 -0.046536114
-0.05042039 0.008225568 -0.028280083 -0.0034141862 -0.019493937 0.01708372 -0.025144856 0.05123599
-0.06813099 -0.050266918 0.011411898 0.035505038 -0.0020503695 -0.0607654 0.04005808 -0.08435018
-0.071071655 -0.05212914 -0.034868818 0.07180505 0.00463457 0.0037443314 0.05127924 0.045955643
-0.060533073 -0.096808955 -0.036509216 0.044773612 0.0047975844 0.0107214 -0.02630519 -0.10040878
-0.04510835 0.09149199 0.013356845 -0.020044886 0.013743509 0.0032408244 0.040823106 -0.05054558
0.041593336 0.022060942 -0.009979389 0.032658763 -0.012498433 -0.01726652 -0.018394075 -0.012142686
-0.007600758 0.015419275 -0.0031656642 0.0006113409 0.0033473256 0.010742402 0.025712525 0.014336443
0.04430033 -0.009162885 0.010555575 0.005034251 -2.9948626e-05 0.048687596 0.011394959 0.047658898
0.04677581 -0.010936079 0.025789607 -0.030578911 0.0029007862 -0.015166958 0.008330088 0.010332606
0.043859176 0.030128492 -0.009545072 0.013022326 0.00912817 0.0117011955 0.02653166 0.046938382
-0.019415708 -0.029254442 -0.0029476339 0.020948473 0.019024067 0.016322685 -0.03643862 0.03742651
0.020898333 -0.0020756014 0.0009764618 0.00152366 0.0011044446 0.010258035 0.0056345486 4.468646e-05
-0.000172861 -0.0015474332 -0.039253462 -0.006211054 0.006842384 -0.0020000276 0.00011874159 0.002645153
0.043057103 -0.0034740956 -0.003286056 0.036309298 -0.009218375 0.048376728 -0.00063667435 0.0055747675
0.037035055 -0.00069957663 0.0022653795 -0.073669 -0.004953676 0.0007812401 8.742658e-05 0.0007579238
0.091785304 0.17768945 0.024583688 -0.0020308634 0.010765818 0.0010554816 -0.00159892 0.10722943
0.0008306292 -0.1658924 0.019837702 -0.017233938 -0.002733074 0.07086448 -0.14316298 0.18921904
0.8986448 0.7145228 -0.77865356 0.8055904 -0.61337394 0.0072947126 0.006569317 -0.561751
-0.7160695 0.8291923 0.0059436243 0.008437624 0.009732252 0.76174915 0.79604816 0.37240145

1.0.0.fn.1.out.bias f4 [48]
00000000: a083 90bf 31e2 25be ded2 32be 772c 8fbd
00000010: d00b a43e 7082 a03f f58a f33d 1014 323e
00000020: 65ea dc3d d921 d13d f1ef 843d f1d1 c43e
00000030: 960d bd3b 373d c3bd ab97 40be a2d0 bc3e
00000040: abdf 20bb 704f 503d 0be9 4fbd 7702 05bd
00000050: 0605 dbbd 42c2 b03d f938 7c3c 84cc 043d
00000060: 8d3e 6a3d da7a dbbd 5288 00be 7413 043e
00000070: 7f75 a4bd f48b 06be ae3e 123e 20f4 953c
00000080: 77e2 97bb fe7f 5b3c f8e2 08bc 218e c33e
00000090: 6584 953c 5743 163e 50ee cebd c386 d6be
000000a0: 4ced 70be b57b a53d 47d5 6c3d 15d0 9ebe
000000b0: e8e9 b23d 03c3 153e c4dd 2cbe 5c62 9f3a
-1.1290169 -0.16199566 -0.17463252 -0.06990903 0.32040262 1.2539806 0.11891738 0.17390466
0.10786895 0.10211534 0.06491078 0.38441423 0.005769442 -0.0953316 -0.18807857 0.36877924
-0.002454738 0.050857008 -0.050759356 -0.032473054 -0.106943175 0.08630802 0.015394443 0.032421604
0.05718856 -0.107167915 -0.12552002 0.12898046 -0.08030223 -0.13139325 0.14281723 0.018304884
-0.004635151 0.013397215 -0.008354895 0.38194373 0.018251607 0.14674126 -0.10104048 -0.4189969
-0.23528022 0.08080236 0.057820585 -0.3101813 0.0873602 0.14625172 -0.16881472 0.0012160051

1.0.1.fn.0.weight f4 [48]
00000000: 6fae 403f bf72 0140 71c5 bb3f 303f f73f
00000010: 162d e03f 8c43 713f c022 8e3f 44f5 bd3f
00000020: 844a cb3f 0893 9d3f d586 1d40 5a97 853f
00000030: 0d38 803f d998 ae3f 0803 e63f 51e8 8f3f
00000040: 9ed0 64b7 5cee b63f 2142 993f 91ce 093f
00000050: 8dab ce3f 9240 d93f e88f c83f 2a53 c03f
00000060: 0f97 0a40 7b76 e53f 575b b83f 78bd 2e3f
00000070: 1fc1 d43f 512e b93f 458f ed3f c8c8 ee3f
00000080: 405c 0640 765c d63f 4d01 b53f 47eb a43f
00000090: d0c9 0040 f76d b13f d3a1 f23f df7c a93f
000000a0: 0f0b a93f 5410 c23f 235a ac3f f0f2 b33f
000000b0: 07ea 903f a79c a93f 163f d13f c2e7 f03f
0.75266165 2.0226285 1.4669629 1.9316158 1.7513759 0.94243693 1.1104355 1.4840474
1.5882115 1.2310495 2.4613545 1.0436814 1.0017105 1.3640395 1.7969675 1.1242772
-1.36384315e-05 1.4291492 1.1973306 0.5383082 1.6146103 1.697283 1.5668917 1.502538
2.16547 1.7926782 1.4402875 0.68257856 1.6621436 1.446726 1.8559347 1.8655024
2.0993805 1.6746967 1.4141022 1.2884301 2.0123177 1.3861684 1.8955635 1.3241233
1.32065 1.5161233 1.3465008 1.4058514 1.132142 1.3250932 1.6347377 1.8820727
